GAIL_simulator_py/src/domain/player/models/v1/weights/cluster_2/termination_25_model_02.pth (torch, 73574 bytes, 12 tensors)

network.0.weight f4 [512, 8]
0.070146054 0.28798422 -0.11681474 0.100326516 0.3194616 -0.0683563 -0.017771259 -0.7600223
-0.26300433 0.09680594 0.06405193 0.062073648 0.0740109 -0.103287436 0.1935432 -0.4569309
-0.0003996251 0.03359749 -0.06530649 0.22773956 0.004966171 0.14647566 0.09438226 0.05732388
-0.5069423 -0.073185794 -0.28966329 0.10231046 0.3032686 0.23771153 -0.07646304 -0.0034456823
-0.2004275 0.077320136 -0.2303034 -0.08747452 -0.031902816 0.20927191 -0.37754896 -0.64272356
-1.1090995 0.018232422 -0.21815768 -0.017870704 0.11223459 -0.22717933 -0.39399177 -0.42395058
-0.029622661 0.099156894 0.18391371 0.12261249 -0.013975551 -0.18624133 0.1534691 0.06502648
0.0328423 -0.059914365 -0.07648338 -0.962089 -0.003950406 0.08046603 0.054936904 0.026928851
0.094364114 -0.025816903 -0.74924827 0.18905362 0.0010130422 0.1880182 0.34704506 -0.027010985
0.011376732 -0.0623706 0.0058008013 -0.90448517 -0.0016312347 -0.0010637128 0.056032438 0.03245333
0.04585465 -0.052678622 -0.114348695 0.12817024 -0.075473785 0.12934518 0.21616259 0.11568378
0.038302768 0.38099873 -0.02944954 0.10031222 -0.0036408529 -0.384383 0.26398182 0.008187926
0.02877182 0.107867464 -0.1552259 0.22802721 -0.1828264 0.18855308 -0.34104964 0.027438426
-0.08371287 -0.30192494 0.15902188 0.015760666 -0.006907074 -0.29094544 0.0017646947 -0.042293504
0.00125058 -0.01401797 0.3056954 -0.0028311592 -0.00045763928 -0.14764538 -0.68206227 0.085018545
0.11951968 -0.22009854 -0.29336736 0.15977238 -0.1283906 -0.610881 0.19296095 0.10871361
0.17534623 0.042318724 -0.0685661 0.26119417 -0.037846446 0.20703635 -0.2047906 -0.21895593
-0.02173781 -6.5613062e-06 0.00082494266 0.0012520237 -0.00018898056 -0.0012734834 -1.7263066 -0.002641993
-0.00092231476 -0.006235013 0.20724681 0.19448644 -0.0024047652 -0.26364022 0.17355794 -0.08778859
0.028148666 -0.045273505 -0.037573572 0.06313776 0.18276215 -0.42371866 0.05678439 0.09103868
-0.31396154 -0.023293138 -0.11608372 0.12081527 0.35847256 0.19698426 -0.23329248 -0.08383398
-1.0870271 0.2672238 -0.024333442 0.037730083 -0.0007970934 -0.3590699 0.012219606 -0.27101663
-0.15737149 -0.028283069 0.03832059 0.17839767 0.04103198 0.08955798 -0.043907 0.15862206
-0.44882768 0.06941599 -0.06353754 0.14915581 0.2287676 0.11637694 -0.7085176 -0.16799271
0.024590133 -0.0124566415 -0.5014175 0.03100114 0.1367201 -0.5729294 0.020773763 -4.6469913
0.010972303 -0.019408958 0.18583189 0.3771703 -0.0036725432 -0.15746108 -0.06176023 -0.15453213
0.008123939 -0.00126622 -0.05819733 0.036268856 -0.003966304 0.13010818 0.18732755 0.059793204
0.13168347 -0.20628378 0.060824636 -0.54852045 0.095474735 -0.1028537 -0.113322906 0.05693889
-0.37394473 0.24976817 -0.19418702 0.38719064 -0.045697864 -0.1925499 -0.21255974 -0.7106969
0.03123897 -0.08970998 0.003360238 -0.046976328 0.006466445 -0.15518671 -1.092153 -1.1995245
0.10270811 0.5639068 -0.02199002 0.104311995 -0.0027470435 -0.56378543 -0.02034492 -0.41697204
0.018264875 0.31404752 0.13473892 0.20558952 0.0011945895 -0.10485685 -0.012772996 -0.0032955676
00000000: bca8 8f3d ab72 933e 913c efbd fd77 cd3d
00000010: 7990 a33e 63fe 8bbd 0895 91bc d290 42bf
00000020: 81a8 86be 3142 c63d a92d 833d f040 7e3d
00000030: 0793 973d 5d88 d3bd 3030 463e d9f2 e9be
00000040: c684 d1b9 869d 093d 69bf 85bd 8f34 693e
00000050: 43bb a23b b7fd 153e 7d4b c13d 72cc 6a3d
00000060: f8c6 01bf 6fe2 95bd bf4e 94be 2588 d13d
00000070: 0646 9b3e a76a 733e a898 9cbd f5d0 61bb
00000080: de3c 4dbe 055a 9e3d a8d4 6bbe d725 b3bd
00000090: 87ac 02bd 604b 563e 194e c1be 8889 24bf
000000a0: f9f6 8dbf 295c 953c ba64 5fbe 9565 92bc
000000b0: 40db e53d b3a1 68be 4ab9 c9be 0d10 d9be
000000c0: 39ab f2bc c512 cb3d e053 3c3e 421c fb3d
000000d0: b6f9 64bc 0cb6 3ebe 0127 1d3e 9a2c 853d
000000e0: a685 063d c468 75bd 51a3 9cbd 774b 76bf
000000f0: 6872 81bb 60cb a43d 8505 613d e599 dc3c
00000100: f941 c13d f87d d3bc bcce 3fbf 4697 413e
00000110: 0ec8 843a d887 403e e4af b13e 2446 ddbc
00000120: 7965 3a3c 5078 7fbd a614 be3b 578c 67bf
00000130: 27cf d5ba 476c 8bba 4582 653d c8ed 043d
00000140: 16d2 3b3d 8ac5 57bd a62f eabd 0f3f 033e
00000150: 0092 9abd 1073 043e ba59 5d3e 9eeb ec3d
00000160: 5de3 1c3d 4412 c33e 2940 f1bc 7e70 cd3d
00000170: 609b 6ebb d9cd c4be a028 873e a726 063c
00000180: e1b2 eb3c 9ee9 dc3d 8af3 1ebe f77f 693e
00000190: d836 3bbe 0f14 413e 0f9e aebe 8dc6 e03c
000001a0: a771 abbd e895 9abe a2d6 223e 831c 813c
000001b0: bc54 e2bb cdf6 94be 544d e73a f43b 2dbd
000001c0: 80ea a33a a1ab 65bc 1c84 9c3e f88a 39bb
000001d0: 4eef efb9 5a30 17be a29b 2ebf 341e ae3d
000001e0: bcc6 f43d 8361 61be 3f34 96be 5f9b 233e
000001f0: d378 03be b262 1cbf 8e97 453e 3ea5 de3d
00000200: f68d 333e 6656 2d3d 626c 8cbd 3ebb 853e
00000210: e004 1bbd 5601 543e a1b4 51be fc35 60be
00000220: 7e13 b2bc 3129 dcb6 f740 583a f21a a43a
00000230: 1529 46b9 03eb a6ba 9df7 dcbf 4a25 2dbb
00000240: 7fc7 71ba 144f ccbb 8238 543e 7427 473e
00000250: 4499 1dbb dafb 86be 2cb9 313e 81ca b3bd
00000260: 0898 e63c b670 39bd bfe6 19bd 5f4e 813d
00000270: 0026 3b3e a7f1 d8be c096 683d 7d72 ba3d
00000280: 91bf a0be 40d1 bebc 4dbd edbd ff6d f73d
00000290: b789 b73e 3eb6 493e 39e4 6ebe 26b1 abbd
000002a0: b423 8bbf 8fd1 883e ed56 c7bc dc8a 1a3d
000002b0: 08f4 50ba 03d8 b7be be34 483c b1c2 8abe
000002c0: fe25 21be e5b1 e7bc 0df6 1c3d e1ad 363e
000002d0: 2611 283d 2d6a b73d d4d7 33bd d26d 223e
000002e0: becc e5be f829 8e3d f81f 82bd 4dbc 183e
000002f0: 0e42 6a3e 0857 ee3d 6961 35bf 4806 2cbe
00000300: 3f71 c93c f116 4cbc e65c 00bf 1af6 fd3c
00000310: 5b00 0c3e 80ab 12bf bd2d aa3c 27b4 94c0
00000320: 2dc5 333c 89ff 9ebc b74a 3e3e 771c c13e
00000330: 0daf 70bb 7a3d 21be 4cf8 7cbd ac3d 1ebe
00000340: 451a 053c 4bf7 a5ba 5360 6ebd a78e 143d
00000350: c5f7 81bb 143b 053e cbd2 3f3e b8e9 743d
00000360: 08d8 063e 0e3c 53be 4123 793d d66b 0cbf
00000370: 4288 c33d f6a4 d2bd d715 e8bd c138 693d
00000380: af75 bfbe 3ac3 7f3e f6d8 46be da3d c63e
00000390: af2d 3bbd cd2b 45be 43a9 59be 3bf0 35bf
000003a0: dee8 ff3c deb9 b7bd 7037 5c3b 406a 40bd
000003b0: 79e4 d33b 44e9 1ebe abcb 8bbf 058a 99bf
000003c0: a158 d23d 325c 103f 6a24 b4bc 87a1 d53d
000003d0: be07 34bb 3e54 10bf 64aa a6bc 5c7d d5be
000003e0: 38a0 953c d6ca a03e 00f9 093e 0f86 523e
000003f0: c693 9c3a 30bf d6bd d445 51bc 73fa 57bb

network.0.bias f4 [512]
-0.29668117 -0.1641268 0.1019864 -0.15469307 -0.09327714 -0.2242279 0.075686194 -0.33990535
0.0560828 -0.3184516 0.088766456 -0.08667955 -1.13364 -0.1256242 -0.096898474 -0.7842962
-0.3899708 -0.3402916 0.12516177 -0.14838336 -0.16832912 -0.13638547 -1.021408 -0.17448056
-0.36744267 0.15856458 0.02773375 -0.14990231 -0.08000474 -0.23728457 -0.22221094 0.028944513
-0.017735776 -0.017652353 0.050866604 -0.48454246 0.12065759 -0.18787016 0.025527805 -0.073260255
0.14025447 0.097885214 -0.31289566 -0.60377145 -0.11867619 -0.013086841 -0.9152199 0.03335673
0.036691677 -0.1306736 -0.45229176 0.07802257 -0.4382113 0.10964268 0.045825474 0.14758974
0.11423698 0.18731007 -0.17604952 0.13291258 -0.21494621 -0.36921304 0.1848161 0.1300855
-0.020715473 -0.024707725 -0.36024138 -0.44256002 -0.099874824 -0.05510582 -0.43329465 0.18699956
-0.23143002 -0.84786314 -0.37336296 -0.35373476 -0.12647936 -0.18373755 -0.12495597 0.027506925
-0.2897884 0.07565028 0.16595419 -0.1118408 -0.13583174 -0.25094223 -0.24403585 0.1068407
-0.43276355 -0.23733991 0.058955107 0.09974518 0.05457257 0.073701404 -0.95044446 -0.16654514
-0.6816514 -0.17618302 -1.2596967 -0.26141143 0.11907019 -0.13222049 -0.055306766 0.12883303
-0.31781846 0.027910497 -0.11416054 0.07546248 0.03910567 -0.12999655 -0.25502256 -0.6572917
-0.26185137 -0.25140646 -0.048991777 -0.29415956 -0.33222017 -0.2761322 0.025598675 0.13953266
-0.3913063 0.104348056 -0.40057346 0.0863763 -0.0344144 -0.20767967 0.08627332 -0.02149438
0.090045206 -0.24821372 0.031616792 0.022673717 -0.35934672 0.024097707 -0.25303125 -0.38805577
-0.20685339 -0.46123645 0.0027822934 -0.3134632 -0.14986876 -0.5249264 -0.25068724 -0.42893037
-0.34792662 -0.71854913 -0.13266675 -0.28336698 0.14207758 -0.38834363 -0.10817904 -0.07588672
-0.30211085 -0.44575277 0.15570237 -0.06752347 -0.30723962 -0.6415257 -0.47795135 0.018121654
0.11392394 -0.5080704 0.12540796 -0.18607168 -0.32974234 -0.35405347 -0.128427 -0.102931455
0.15379493 0.07808173 0.08366215 -0.1309841 -0.08799568 -0.14266357 0.035352245 0.11410647
-0.35242477 0.14043498 0.09701934 -0.03890139 -0.29815972 -0.62158376 -0.5590105 -0.54716295
0.07233728 0.032517105 0.071825445 0.026359234 0.049132273 -0.26770625 -0.23054771 -0.36991692
-0.2063631 -0.3064041 -0.14181396 0.17486204 0.05289071 0.12532075 -0.3071477 -0.4093727
-0.27017006 -0.10177142 -0.50667834 -0.4043473 0.027047228 0.17820759 -0.95499897 -0.5404996
-0.2609743 -0.2676064 0.0119879255 -0.22228506 -0.9820336 0.059370942 -0.16708878 0.01231905
-0.13146031 -0.8048736 -0.5948301 -0.5324311 0.15448782 -0.23564276 0.077543415 0.039428107
-0.52465284 -0.43441567 -0.25641492 -0.43804464 0.16417935 -0.2923713 -0.27449948 -0.14018314
-0.6296608 0.09480319 -0.033599418 -0.011329727 0.09497312 -0.06732632 -0.245976 0.13196902
-0.17200713 -0.06730409 -0.0455111 -0.9063178 -0.1397937 0.03075547 -0.024786387 -0.2336799
0.11436899 -0.30752736 -0.14619058 -0.124857485 0.018215245 -0.3227232 -0.21878202 -0.87045425
00000000: 98e6 97be db10 28be 3fde d03d dc67 1ebe
00000010: 1608 bfbd 009c 65be 5d01 9b3d 1308 aebe
00000020: 14b7 653d 170c a3be 30cb b53d 0c85 b1bd
00000030: 1e1b 91bf a1a3 00be b572 c6bd a3c7 48bf
00000040: 41aa c7be b33a aebe 682a 003e cff1 17be
00000050: 785e 2cbe a2a8 0bbe 7fbd 82bf 08ab 32be
00000060: 7221 bcbe c15e 223e e431 e33c fe7f 19be
00000070: 86d9 a3bd bafa 72be 448b 63be 0b1d ed3c
00000080: 9e4a 91bc ab9b 90bc 8059 503d f315 f8be
00000090: 541b f73d 0961 40be b01f d13c 7909 96bd
000000a0: de9e 0f3e 0b78 c83d dc33 a0be c490 1abf
000000b0: 810c f3bd 316a 56bc da4b 6abf 11a1 083d
000000c0: 034a 163d 4dcf 05be c992 e7be 4cca 9f3d
000000d0: 3b5d e0be 578c e03d 7eb3 3b3d c421 173e
000000e0: 14f5 e93d 36ce 3f3e 5346 34be 3c1a 083e
000000f0: dc1a 5cbe 7e09 bdbe 6f40 3d3e 2235 053e
00000100: 7fb3 a9bc db67 cabc 8f71 b8be 3a97 e2be
00000110: 2c8b ccbd a4b6 61bd ccd8 ddbe d07c 3f3e
00000120: fefb 6cbe 8f0d 59bf 6e29 bfbe b91c b5be
00000130: ce83 01be b225 3cbe eae8 ffbd 3456 e13c
00000140: 255f 94be 89ee 9a3d e5ef 293e ca0c e5bd
00000150: 7a17 0bbe 807b 80be 89e4 79be 4ccf da3d
00000160: 2f93 ddbe 3c09 73be e97a 713d 3347 cc3d
00000170: 7d87 5f3d c3f0 963d 5450 73bf cf8a 2abe
00000180: b580 2ebf 5269 34be be3d a1bf b8d7 85be
00000190: 12db f33d cf64 07be 5989 62bd ceec 033e
000001a0: 1ab9 a2be 8ea4 e43c 00cd e9bd 138c 9a3d
000001b0: 442d 203d d11d 05be 5192 82be 4544 28bf
000001c0: 6211 86be 59b8 80be 9aab 48bd 159c 96be
000001d0: c318 aabe 3361 8dbe 50b4 d13c a6e1 0e3e
000001e0: 4d59 c8be 6fb4 d53d f717 cdbe 0fe6 b03d
000001f0: 1df6 0cbd fba9 54be 11b0 b03d fb14 b0bc
00000200: 9f69 b83d bd2b 7ebe 9c80 013d 3bbe b93c
00000210: 4bfc b7be 8e68 c53c 508d 81be 3faf c6be
00000220: 60d1 53be 2f27 ecbe 2357 363b 407e a0be
00000230: 3277 19be 9461 06bf 145a 80be c39c dbbe
00000240: 7023 b2be d6f2 37bf cbd9 07be 7a15 91be
00000250: c97c 113e fad4 c6be f98c ddbd 7f6a 9bbd
00000260: 46ae 9abe b539 e4be 7170 1f3e bf49 8abd
00000270: 834e 9dbe 073b 24bf 0ab6 f4be dd73 943c
00000280: f450 e93d e710 02bf f26a 003e 9389 3ebe
00000290: fdd3 a8be 7f46 b5be 5e82 03be bacd d2bd
000002a0: 6b7c 1d3e 50e9 9f3d 1057 ab3d b220 06be
000002b0: 1437 b4bd 6616 12be 84cd 103d a7b0 e93d
000002c0: 0571 b4be 30ce 0f3e 13b2 c63d 1057 1fbd
000002d0: 64a8 98be 1d20 1fbf 501b 0fbf df12 0cbf
000002e0: 9125 943d a830 053d 3819 933d 52ef d73c
000002f0: ec3e 493d cb10 89be b314 6cbe c065 bdbe
00000300: d950 53be 00e1 9cbe ae37 11be 090f 333e
00000310: eea3 583d 1554 003e 7742 9dbe 4c99 d1be
00000320: bb53 8abe 896d d0bd acb5 01bf 9c06 cfbe
00000330: 2692 dd3c 0d7c 363e d07a 74bf 2f5e 0abf
00000340: 6c9e 85be b503 89be 0169 443c b29e 63be
00000350: 8e66 7bbf f22e 733d 5219 2bbe d7d5 493c
00000360: 889d 06be 320c 4ebf c946 18bf 684d 08bf
00000370: 0e32 1e3e 564c 71be 15cf 9e3d 5e7f 213d
00000380: a64f 06bf bb6b debe d148 83be 6347 e0be
00000390: a21e 283e b1b1 95be 328b 8cbe 2b8c 0fbe
000003a0: 7331 21bf 2d28 c23d 8b9f 09bd 52a0 39bc
000003b0: 4481 c23d 62e2 89bd 22e1 7bbe e322 073e
000003c0: a322 30be bad6 89bd d969 3abd 7104 68bf
000003d0: 1426 0fbe e5f2 fb3c d20c cbbc c949 6fbe
000003e0: 4a3a ea3d 3a74 9dbe fcb2 15be 48b5 ffbd
000003f0: 2338 953c fa3b a5be 6508 60be 17d6 5ebf

network.3.weight f4 [2, 512]
0.03534845 0.04045205 -0.038247894 -0.15320916 0.01143562 -0.31312597 -0.0602673 0.08730544
0.045671355 0.08797618 -0.018682655 -0.020743852 -0.3685766 0.033779707 0.026284168 -0.109332934
-0.029465003 56.20473 -0.020901851 0.09670902 -0.066847265 -0.18524672 -0.09968349 -0.079767704
1.1844563 -0.022437304 -0.005080085 -0.013176847 0.031667225 0.24947459 -0.060651217 -0.049406838
0.09107345 -0.019914646 -0.10813501 -0.025940947 -0.0028238238 -0.03195458 0.008263125 -0.030662354
-0.008799079 -0.038866017 0.011634015 0.1297621 0.2968807 -0.031918243 -0.076325186 0.029603472
-0.13177319 -0.015391709 0.048113983 -0.046320703 0.0957049 -0.012657002 -0.15072986 -0.0022136583
-0.05546692 -0.033282924 0.12317349 0.014648718 0.056287162 0.47974318 -0.012120594 -0.011627849
-0.10551993 0.040084187 -0.025425525 -4.657658 -0.06333417 -0.030755207 -0.054543067 -0.046729784
-0.030380573 -0.07989823 0.9313751 0.0648626 0.077257164 0.056619875 0.031518865 0.015668316
-0.11785273 -0.013032259 -0.00386192 0.114998244 0.004376549 -0.07394291 0.34345046 0.040095
0.07995663 -0.2898572 -0.07423933 -0.037963554 -0.049139787 -0.05476871 -0.020189527 -0.06157917
-0.046202604 -0.067883536 -0.04389188 0.1484861 -0.04667795 -0.13569488 -0.060745545 -0.043678842
0.03294254 -0.037149474 -0.009235487 -0.053635586 -0.04874511 -0.15186909 -0.07891856 -0.049076553
4.869031 -0.031983472 -0.081887655 0.026274022 0.020223629 0.31430927 -0.053380657 0.013622699
0.06824193 -0.03476263 51.451797 -0.06291972 0.010067394 -2.3586512 -0.061620332 -0.0881177
-0.046926558 -1.4686688 -0.0617346 -0.09326122 68.60745 0.03021179 0.030122178 0.07793845
0.23020783 -0.25550744 -0.07722357 -0.0035911945 -0.010767124 0.0027644003 0.08959359 -0.22548823
-0.18362248 -0.049471665 -0.07279673 0.0574269 -0.0450971 -0.2756933 -0.09735143 0.074450254
0.01662004 0.023216667 -0.017262233 0.04168203 0.0076363203 0.03231773 0.04635802 0.027764134
-0.0012511957 0.35037658 -0.047312643 -0.034601245 0.078366086 0.041838076 0.04031404 -0.044681802
-0.038347054 -0.05439562 -0.05723057 0.4235489 0.0110598765 0.050053388 -0.045288157 -0.03580422
0.44391513 -0.033884436 -0.07196454 0.011801145 -0.16072524 -0.03348701 -0.022043634 0.052331682
0.0754951 0.0058986186 -0.030003322 -0.046514854 0.1247413 0.075247385 0.035064474 -0.10171497
-0.035969995 -2.934585 -0.065090634 -0.025906561 0.041800614 -0.0046073315 0.06620634 -0.0387358
-0.069493346 0.0820698 0.06850664 0.14489816 0.16508466 -0.028995873 0.1769741 -0.31462637
-0.13071243 -0.022635594 0.02609268 0.038670536 -0.058924552 0.01883131 0.08082487 -0.048956532
0.120875604 -0.009553758 -0.7962223 0.04845041 -0.037294555 0.10599818 -0.10301628 -0.035066202
0.6261173 -0.28187236 0.060992397 -0.06454674 -0.016218558 -0.005129672 -0.58912593 0.06589498
0.19552307 -0.0561721 0.8996804 0.08861337 -0.013674438 -5.810561e-05 1.322825 -0.061202455
0.057623602 0.042272076 -0.10902405 0.31810835 0.048054017 -0.17386603 -0.07572131 -0.05494576
-0.02325325 0.038967747 -0.020853288 0.03582157 -0.028417716 0.070931055 0.028143985 0.36989442
00000000: 89c9 103d 0cb1 253d d3a9 1cbd dde2 1cbe
00000010: 775c 3b3c 0c52 a0be d8da 76bd 32cd b23d
00000020: e311 3b3d db2c b43d 5e0c 99bc 03ef a9bc
00000030: 12b6 bcbe 975c 0a3d e551 d73c f2e9 dfbd
00000040: 9760 f1bc a5d1 6042 5c3a abbc 610f c63d
00000050: 38e7 88bd 51b1 3dbe dc26 ccbd 405d a3bd
00000060: 449c 973f 70ce b7bc d776 a6bb b4e3 57bc
00000070: 7eb5 013d 4476 7f3e 696d 78bd d35e 4abd
00000080: b884 ba3d 0a24 a3bc e375 ddbd 1c82 d4bc
00000090: e70f 39bb cee2 02bd 0f62 073c 9e2f fbbc
000000a0: 032a 10bc f931 1fbd 989c 3e3c 5be0 043e
000000b0: bf00 983e b4bc 02bd 6150 9cbd fb82 f23c
000000c0: 8def 06be 822d 7cbc 2b13 453d c7ba 3dbd
000000d0: ee00 c43d 505f 4fbc ee58 1abe 0613 11bb
000000e0: 4831 63bd ad53 08bd 6242 fc3d 2d01 703c
000000f0: 5e8d 663d e6a0 f53e 7595 46bc bc82 3ebc
00000100: d51a d8bd 512f 243d 3149 d0bc 890b 95c0
00000110: 58b5 81bd 58f2 fbbc 8d68 5fbd bb67 3fbd
00000120: aee0 f8bc afa1 a3bd 996e 6e3f afd6 843d
00000130: 0139 9e3d 3eea 673d ed19 013d d75a 803c
00000140: c65c f1bd 4285 55bc 4418 7dbb 3384 eb3d
00000150: 2769 8f3b 616f 97bd bdd8 af3e a83a 243d
00000160: 4dc0 a33d 2a68 94be ca0a 98bd ac7f 1bbd
00000170: cd46 49bd 2855 60bd 8264 a5bc 713a 7cbd
00000180: f13e 3dbd 8606 8bbd f9c7 33bd bd0c 183e
00000190: 6131 3fbd 99f3 0abe 52d0 78bd 96e8 32bd
000001a0: c2ee 063d 0c2a 18bd 7150 17bc fdb0 5bbd
000001b0: f4a8 47bd 9283 1bbe 0ea0 a1bd 7f04 49bd
000001c0: 1acf 9b40 1a01 03bd b7b4 a7bd 9e3c d73c
000001d0: 06ac a53c 25ed a03e ada5 5abd be31 5f3c
000001e0: 6dc2 8b3d 4263 0ebd a4ce 4d42 0edc 80bd
000001f0: b6f1 243c 24f4 16c0 9a65 7cbd 0d77 b4bd
00000200: 1036 40bd 57fd bbbf 6cdd 7cbd bdff bebd
00000210: 0437 8942 b77e f73c c9c2 f63c 329e 9f3d
00000220: 9abb 6b3e dfd1 82be 6427 9ebd 3f5a 6bbb
00000230: 9768 30bc f12a 353b d87c b73d 63e6 66be
00000240: 8807 3cbe cda2 4abd 7416 95bd 7838 6b3d
00000250: bdb7 38bd ac27 8dbe 3060 c7bd 6079 983d
00000260: c026 883c e130 be3c 8769 8dbc c7ba 2a3d
00000270: 193a fa3b 995f 043d e8e1 3d3d 9c71 e33c
00000280: 29ff a3ba 8f64 b33e e7ca 41bd 09ba 0dbd
00000290: 667e a03d 675e 2b3d 5620 253d 4404 37bd
000002a0: cd11 1dbd f1cd 5ebd 9a6a 6abd 67db d83e
000002b0: 7c34 353c c804 4d3d 1380 39bd 72a7 12bd
000002c0: d848 e33e 68ca 0abd 2562 93bd 9759 413c
000002d0: 2895 24be ad29 09bd da94 b4bc bf59 563d
000002e0: 2d9d 9a3d 3349 c13b 87c9 f5bc 5c86 3ebd
000002f0: 5e78 ff3d 4d1b 9a3d c49f 0f3d f04f d0bd
00000300: 4655 13bd 3ed0 3bc0 3d4e 85bd ff39 d4bc
00000310: 1f37 2b3d 19f9 96bb 3197 873d 6ea9 1ebd
00000320: 8752 8ebd 3614 a83d 364d 8c3d 2f60 143e
00000330: f40b 293e c188 edbc b338 353e b516 a1be
00000340: 7bd9 05be 486e b9bc 51c0 d53c ff64 1e3d
00000350: df5a 71bd 1f44 9a3c 8287 a53d a586 48bd
00000360: a18d f73d 5e87 1cbc 3ad5 4bbf f073 463d
00000370: 2dc2 18bd 9315 d93d 33fa d2bd 94a1 0fbd
00000380: 3949 203f 9351 90be 2ad3 793d 1531 84bd
00000390: c8dc 84bc cf16 a8bb f5d0 16bf f3f3 863d
000003a0: 3337 483e b714 66bd 7451 663f ed7a b53d
000003b0: c00a 60bc 6cb6 73b8 5452 a93f 6daf 7abd
000003c0: ba06 6c3d 7c25 2d3d 0048 dfbd 19df a23e
000003d0: 4ad4 443d f009 32be c613 9bbd ce0e 61bd
000003e0: 9a7d bebc a59c 1f3d 84d4 aabc a3b9 123d
000003f0: 45cc e8bc 4d44 913d 378e e63c cd62 bd3e

network.3.bias f4 [2]
-0.29700756 0.31526604
00000000: 6011 98be 8d6a a13e

exp_avg f4 [512, 8]
-1.6523773e-06 8.303982e-06 3.1447978e-06 -3.1239054e-07 6.14983e-06 3.1464544e-06 -5.848939e-07 -2.0037002e-07
-1.8382433e-06 4.699853e-06 1.6142005e-05 7.956974e-07 -5.197925e-07 1.6153945e-05 1.7131505e-06 -1.7252249e-06
1.6065002e-06 -4.8773327e-06 -4.5986044e-06 6.8304337e-07 5.56299e-07 -4.753032e-06 4.1392792e-07 5.846828e-06
1.1037705e-07 -6.724123e-06 1.5734034e-06 6.297509e-06 -1.1741036e-05 1.0435919e-06 3.3837523e-06 3.4569137e-05
-1.0618554e-06 1.0176115e-05 4.507889e-06 -7.0102224e-06 -2.0590367e-06 4.8517045e-06 -3.2123517e-06 -1.3229266e-06
5.055063e-07 -7.003126e-06 1.2368957e-05 2.030551e-05 -4.271156e-05 1.2101819e-05 1.255378e-05 6.7822197e-07
-5.444439e-07 -9.748565e-06 -9.353258e-06 1.862234e-06 -3.439809e-06 -9.288713e-06 8.5625607e-07 1.0746431e-05
-5.337663e-06 9.894909e-06 -1.038831e-05 -1.0835837e-05 4.329244e-05 -9.768723e-06 -4.86328e-06 -2.3130699e-05
-4.8724887e-06 8.180498e-06 -9.914361e-06 -6.891242e-06 -1.3913475e-05 -9.369064e-06 -8.9463565e-06 -1.1249339e-06
-9.227183e-06 3.642148e-06 7.605876e-06 -2.1484038e-06 4.8457394e-05 8.176652e-06 -1.1768177e-06 -2.4178878e-05
1.2556985e-06 -2.0128857e-06 -2.0865943e-06 8.789495e-08 6.81137e-06 -2.205373e-06 3.5675427e-07 5.9737877e-06
2.1084775e-06 -7.841828e-06 2.9314847e-06 2.3414882e-06 2.6558782e-06 2.9748098e-06 2.732161e-06 6.569902e-07
8.375335e-07 -4.5132998e-07 -1.8409357e-06 -1.9272895e-06 -1.351412e-05 -1.7732526e-06 -5.403185e-07 8.0324577e-07
1.0556638e-07 1.5173274e-06 -2.7656536e-06 -2.735043e-07 2.1080623e-07 -2.6827297e-06 -4.0786907e-07 5.1491163e-08
-1.357314e-06 2.857129e-06 4.5791776e-06 7.0774274e-07 3.1464651e-06 4.586802e-06 1.0384445e-06 -8.231874e-06
3.6770373e-06 -9.494304e-07 9.272192e-09 -1.0515942e-06 -5.137501e-06 2.8261397e-08 -7.9662937e-07 2.5538733e-07
2.568062e-06 -3.5844955e-06 -6.5288446e-06 -8.3301484e-07 -1.616877e-07 -6.5336385e-06 -8.8570795e-07 1.4216954e-06
5.8148024e-05 -0.0031451236 0.00033773153 0.0029637532 -0.016724596 0.00059012277 0.00078959326 6.267301e-05
-5.35693e-08 -2.8965112e-06 1.7703697e-06 3.0056501e-06 -4.3154373e-06 1.806573e-06 1.8897055e-06 2.4599365e-07
5.3313915e-06 2.061396e-06 -9.80366e-06 -1.237866e-05 2.7224876e-05 -9.750829e-06 -6.8354752e-06 -2.8886936e-05
1.079671e-06 -8.221847e-06 -2.7135443e-06 4.058449e-06 -9.512951e-06 -2.7062042e-06 1.0185053e-06 2.0622845e-06
1.1942693e-06 -3.4375644e-05 1.2305983e-05 1.3783983e-05 6.4627704e-05 1.2406557e-05 1.2431964e-05 1.1046676e-06
3.2058783e-06 -5.922616e-06 -2.644977e-05 -1.0482997e-06 4.3911728e-06 -2.6468975e-05 -3.8221115e-06 2.5932222e-05
2.0181596e-06 -9.001433e-06 -1.4479199e-05 6.0395214e-06 -1.3836451e-05 -1.4558265e-05 2.1819267e-06 2.085967e-06
4.7284957e-05 4.817122e-06 2.1447988e-05 6.212404e-05 -8.191236e-05 2.1364569e-05 1.8089273e-05 -1.7004729e-07
3.9413186e-07 -3.3821734e-06 -3.051343e-07 1.3589955e-06 2.1683104e-06 -2.7555848e-07 7.318784e-07 5.755116e-07
4.100375e-06 -5.353399e-06 -6.1646133e-06 -1.1537948e-06 2.0711352e-07 -6.38265e-06 -8.5123185e-07 8.489595e-06
-2.9324391e-07 1.3422606e-06 -3.7679733e-06 -1.7861122e-06 3.5185005e-06 -3.713065e-06 -1.1898192e-06 -5.3845207e-07
3.911039e-08 3.9593824e-06 -2.1890698e-06 1.6068556e-06 -7.941424e-06 -2.3164066e-06 -1.2652173e-06 -4.0342799e-10
1.22565e-05 -1.3578275e-05 -1.5575912e-05 -1.68898e-05 0.00010513609 -1.3791083e-05 -9.611071e-06 2.5995385e-07
4.6269233e-06 -1.0601525e-05 5.297212e-06 5.0569784e-06 1.0047232e-05 5.357828e-06 4.8695756e-06 1.9821577e-07
1.4432146e-06 -1.0788469e-05 -3.307097e-06 7.199338e-06 2.6791756e-06 -3.289716e-06 3.2250728e-06 1.396103e-06
00000000: 40c7 ddb5 5551 0b37 370b 5336 a1b6 a7b4
00000010: a35a ce36 ad27 5336 9a01 1db5 4b25 57b4
00000020: 8fb9 f6b5 6eb3 9d36 b168 8737 e997 5535
00000030: de87 0bb5 5582 8737 67ef e535 478e e7b5
00000040: ed9e d735 f8a7 a3b6 b64d 9ab6 625a 3735
00000050: 9454 1535 3c7c 9fb6 d239 de34 df2f c436
00000060: 6d08 ed33 c79f e1b6 bb2d d335 314f d336
00000070: 5efb 44b7 8b11 8c35 6c14 6336 54fe 1038
00000080: 1385 8eb5 15ba 2a37 7942 9736 5a39 ebb6
00000090: fb2d 0ab6 d3cb a236 c893 57b6 698f b1b5
000000a0: 21b2 0735 65fc eab6 4484 4f37 c055 aa37
000000b0: 3025 33b8 eb08 4b37 139e 5237 0f0f 3635
000000c0: e625 12b5 c58d 23b7 f0eb 1cb7 dff1 f935
000000d0: 78d7 66b6 b8d6 1bb7 78d9 6535 924b 3437
000000e0: 2d1a b3b6 5002 2637 7449 2eb7 91cb 35b7
000000f0: e794 3538 59e4 23b7 422f a3b6 cc08 c2b7
00000100: 5c7e a3b6 f93e 0937 db55 26b7 513b e7b6
00000110: ec6d 69b7 d32f 1db7 4f18 16b7 6ffc 96b5
00000120: 73ce 1ab7 a06b 7436 fa35 ff36 4c2d 10b6
00000130: bb3e 4b38 742e 0937 26f3 9db5 bfd3 cab7
00000140: 7989 a835 1d15 07b6 6b07 0cb6 c3c0 bc33
00000150: 398d e436 0500 14b6 ef87 bf34 7272 c836
00000160: 5e7f 0d36 6590 03b7 86ba 4436 7622 1d36
00000170: a43b 3236 d8a2 4736 2b5a 3736 065c 3035
00000180: ddd2 6035 524e f2b4 1216 f7b5 9556 01b6
00000190: b4ba 62b7 7f00 eeb5 680a 11b5 a19e 5735
000001a0: bbb3 e233 f9a6 cb35 9199 39b6 25d6 92b4
000001b0: fa59 6234 f208 34b6 19f9 dab4 2227 5d33
000001c0: f42c b6b5 1abd 3f36 d6a6 9936 b6fb 3d35
000001d0: dc27 5336 54e8 9936 ae60 8b35 a11b 0ab7
000001e0: 05c3 7636 5cdc 7eb5 884b 1f32 8024 8db5
000001f0: cc62 acb6 78c3 f232 f4d7 55b5 2b1c 8934
00000200: f856 2c36 2a8d 70b6 5912 dbb6 589c 5fb5
00000210: 609c 2db4 873b dbb6 63c1 6db5 15d1 be35
00000220: f7e3 7338 6b1e 4ebb 8f11 b139 873b 423b
00000230: 0502 89bc 78b2 1a3a b5fc 4e3a 516f 8338
00000240: 1114 66b3 af61 42b6 719d ed35 adb4 4936
00000250: 53cd 90b6 6079 f235 c9a1 fd35 1c11 8434
00000260: 4ee4 b236 8356 0a36 667a 24b7 f1ad 4fb7
00000270: fa60 e437 7e97 23b7 495c e5b6 3952 f2b7
00000280: 37e9 9035 90f0 09b7 561a 36b6 d02d 8836
00000290: d099 1fb7 3c9c 35b6 93b3 8835 c765 0a36
000002a0: c84a a035 912e 10b8 cb75 4e37 c241 6737
000002b0: bc88 8738 c225 5037 e192 5037 1744 9435
000002c0: 9224 5736 e2ba c6b6 73e0 ddb7 4eb3 8cb5
000002d0: e357 9336 b109 deb7 b03f 80b6 0689 d937
000002e0: b86f 0736 dc04 17b7 b0eb 72b7 18a7 ca36
000002f0: 1b23 68b7 463f 74b7 376d 1236 a4fc 0b36
00000300: d653 4638 c3a2 a136 34eb b337 9748 8238
00000310: 5dc8 abb8 1038 b337 6bbe 9737 3e96 36b4
00000320: 1299 d334 4cf9 62b6 57d1 a3b4 bb66 b635
00000330: 4a83 1136 78f0 93b4 4d76 4435 db7c 1a35
00000340: f495 8936 59a1 b3b6 a0d9 ceb6 16dc 9ab5
00000350: ee62 5e34 8c2a d6b6 3580 64b5 886e 0e37
00000360: 236f 9db4 b927 b435 4add 7cb6 59ba efb5
00000370: 611f 6c36 f92d 79b6 e0b1 9fb5 258a 10b5
00000380: 54fa 2733 d6da 8436 efe7 12b6 23ab d735
00000390: 283c 05b7 9073 1bb6 89d0 a9b5 71c9 ddaf
000003a0: 44a1 4d37 3fce 63b7 04a9 82b7 92ae 8db7
000003b0: 827c dc38 4060 67b7 3c3f 21b7 c98f 8b34
000003c0: f840 9b36 34dd 31b7 b4be b136 1daf a936
000003d0: 8890 2837 64c7 b336 5665 a336 23d5 5434
000003e0: 7ab4 c135 1f00 35b7 7eef 5db6 d891 f136
000003f0: e3cb 3336 e4c4 5cb6 546e 5836 bc61 bb35

exp_avg_sq f4 [512, 8]
4.7273834e-09 1.1947003e-09 1.2117354e-09 3.8857073e-10 8.1518803e-10 1.2143302e-09 7.751988e-11 2.0741232e-11
6.427715e-11 7.860792e-10 4.635619e-09 2.1452155e-10 4.4276773e-11 4.600588e-09 6.7917e-10 6.724277e-11
7.094768e-10 2.5535019e-10 1.044572e-09 5.6281854e-11 1.3471191e-10 1.0414681e-09 1.5113459e-10 1.0198438e-10
1.2730428e-10 4.4707638e-09 8.336465e-09 2.9981477e-09 5.6067195e-09 8.399596e-09 4.5563878e-10 1.3335838e-09
9.408709e-11 1.7307507e-09 6.722098e-09 8.058157e-10 5.6789906e-09 6.749597e-09 2.1943272e-10 9.6483654e-11
6.5000522e-12 7.644547e-09 5.1701914e-09 1.3423741e-08 4.0975994e-08 5.173767e-09 2.97819e-09 1.4549253e-11
8.050057e-11 6.607025e-10 2.2661935e-09 4.38391e-10 2.1673288e-09 2.2461253e-09 5.5853017e-10 2.964672e-10
1.4916642e-08 3.091827e-09 1.6856367e-08 1.9604014e-09 1.12596865e-08 1.6919003e-08 2.8542855e-09 2.2236413e-09
1.1756392e-08 1.1856433e-09 6.5367795e-10 2.1463822e-09 1.0495224e-08 6.6131195e-10 1.6270283e-09 9.738815e-11
1.29611175e-08 2.8000042e-09 1.7048801e-08 1.806361e-09 1.0085644e-08 1.6982636e-08 2.1101147e-09 2.0685706e-09
6.589101e-10 1.6379614e-10 8.310588e-10 8.7059755e-11 5.965388e-10 8.336182e-10 1.6150115e-10 1.03874714e-10
1.7895082e-09 5.0977567e-10 2.9080974e-10 3.4822578e-10 1.8418042e-09 2.859532e-10 5.078781e-10 5.5631368e-11
2.1904633e-07 2.6356453e-08 4.110967e-08 5.534746e-09 1.8498081e-08 4.162387e-08 2.4844304e-10 5.9434266e-09
1.2255203e-11 1.8481182e-10 2.2696293e-10 3.000195e-11 7.211941e-11 2.2222299e-10 4.744038e-11 8.746652e-12
1.3861324e-09 4.823033e-10 2.0463047e-09 6.993234e-11 4.144933e-10 2.0314173e-09 2.5484052e-11 2.202822e-10
2.6641773e-08 5.2021054e-10 1.0814532e-10 3.2973568e-10 2.5026305e-09 1.0829885e-10 3.6622345e-09 1.6788626e-09
1.4949032e-09 4.293667e-10 1.9893165e-09 8.212913e-11 2.9293665e-11 1.9829707e-09 4.9708963e-11 3.6069595e-11
6.3373445e-06 0.00027110166 0.0005241594 0.00033014617 0.0021846034 0.00052549917 6.42527e-05 6.3615394e-06
2.9594968e-10 1.1961813e-10 2.2901128e-10 1.8365974e-10 8.418681e-10 2.1906288e-10 1.9714848e-10 6.1078256e-12
1.6809828e-08 8.6944985e-10 4.6761073e-10 1.7412399e-09 4.402252e-09 4.6645315e-10 3.2389054e-09 3.0395222e-09
7.88976e-11 1.157018e-09 5.2973763e-09 3.4475325e-10 6.7167866e-10 5.2803117e-09 1.6722747e-10 9.553841e-11
6.099914e-11 1.0971962e-08 6.298632e-09 6.4130776e-09 3.1277175e-08 6.182443e-09 2.5631184e-09 5.746936e-11
4.69816e-10 2.6342908e-09 1.6925055e-08 4.078912e-10 8.5099955e-11 1.6838323e-08 8.252952e-10 1.943791e-09
1.438501e-10 2.8287415e-09 1.0619262e-08 9.403389e-10 2.0788093e-09 1.0638766e-08 1.9263867e-10 1.6176789e-10
7.7928426e-08 3.8855024e-08 1.8865745e-08 6.0000886e-08 3.0513874e-07 1.8848937e-08 3.4689648e-07 1.1373851e-11
3.1885067e-10 1.4111354e-10 5.582368e-10 4.9577505e-11 3.163912e-10 5.5507987e-10 2.2929667e-11 9.699289e-12
1.4216381e-09 5.687919e-10 1.9716402e-09 1.13680926e-10 1.5092243e-10 1.9627444e-09 3.1685693e-10 2.1480982e-10
4.7779514e-10 9.66904e-11 1.678166e-10 4.8338493e-11 1.0595528e-10 1.6551095e-10 1.12716295e-11 6.190725e-11
1.6723374e-12 4.1532322e-10 9.951035e-11 4.5472834e-10 3.4370986e-09 9.9971316e-11 5.225793e-11 7.657976e-13
5.892599e-08 1.7463998e-08 1.9151127e-08 1.7687414e-08 6.83021e-08 1.928358e-08 3.627811e-09 2.2660562e-10
6.3648877e-09 1.3204869e-09 8.054816e-10 7.2597506e-10 4.019466e-09 8.0664064e-10 1.5109598e-10 2.0030925e-11
2.208882e-09 5.855455e-10 2.2968645e-09 3.053839e-10 1.4082179e-09 2.2792417e-09 1.9745101e-10 2.111386e-10
00000000: 816e a231 c832 a430 268a a630 789e d52f
00000010: c213 6030 72e5 a630 d077 aa2e 1a71 b62d
00000020: d258 8d2e 6813 5830 5647 9f31 73de 6b2f
00000030: 37bb 422e 3313 9e31 57b0 3a30 50de 932e
00000040: fe04 4330 5861 8c2f 9c90 8f30 bc87 772e
00000050: 081e 142f 6723 8f30 9b2c 262f 1a44 e02e
00000060: f8f8 0b2f 419d 9931 2938 0f32 f907 4e31
00000070: 3aa5 c031 d04d 1032 757d fa2f 4f49 b730
00000080: 53e6 ce2e 60df ed30 33f8 e631 3d80 5d30
00000090: ee20 c331 15ea e731 d244 712f 782b d42e
000000a0: 44b3 e42c 1355 0332 7ca5 b131 3d9e 6632
000000b0: 95fd 2f33 f0c4 b131 dfa8 4c31 03f4 7f2d
000000c0: cb05 b12e ce9c 3530 4cbb 1b31 0c02 f12f
000000d0: 0df0 1431 415a 1a31 1187 1930 0dfc a22f
000000e0: 0b22 8032 ff77 5431 8bcb 9032 bfb7 0631
000000f0: a070 4132 4855 9132 1f25 4431 b6ce 1831
00000100: 29f9 4932 1df4 a230 7fae 3330 8e7f 1331
00000110: 7c4e 3432 b1c7 3530 f89d df30 a828 d62e
00000120: 99ab 5e32 326a 4031 b672 9232 ad43 f830
00000130: 2245 2d32 36e1 9132 8801 1131 ae26 0e31
00000140: ad1e 3530 8418 342f 9070 6430 4972 bf2e
00000150: b0f9 2330 aa24 6530 8892 312f 446c e42e
00000160: b9f2 f530 4620 0c30 d5df 9f2f 6c70 bf2f
00000170: b922 fd30 5634 9d2f be9a 0b30 5aab 742e
00000180: ff32 6b34 7466 e232 8f90 3033 242c be31
00000190: b6e5 9e32 eec5 3233 4095 882f ef36 cc31
000001a0: 8798 572d e733 4b2f 638c 792f 31f3 032e
000001b0: 9e97 9e2e 3656 742f 1fa5 502e 6bdf 192d
000001c0: 3382 be30 1493 0430 f99e 0c31 68c8 992e
000001d0: bfde e32f 1299 0b31 fc28 e02d ed33 722f
000001e0: e1d9 e432 90fe 0e30 67d0 ed2e 2c46 b52f
000001f0: befa 2b31 d526 ee2e b6aa 7b31 babd e630
00000200: 3b75 cd30 fe0b ec2f 6db4 0831 979a b42e
00000210: bcd5 002e ca44 0831 519f 5a2e c1a2 1e2e
00000220: 60a5 d436 a622 8e39 be67 093a 7817 ad39
00000230: 902b 0f3b a7c1 093a 68bf 8638 3575 d536
00000240: 37b3 a22f 8385 032f f2cc 7b2f 9fef 492f
00000250: 3369 6730 b8dc 702f 5dc4 582f 67e6 d62c
00000260: 3465 9032 18fe 6e30 2e89 0030 6f50 ef30
00000270: 9e42 9731 b937 0030 6d93 5e31 d7df 5031
00000280: 667f ad2e f404 9f30 3704 b631 b587 bd2f
00000290: 2fa1 3830 1d6e b531 59de 372f 5817 d22e
000002a0: 7723 862e 337f 3c32 5a6b d831 075a dc31
000002b0: 9e55 0633 586d d431 db22 3031 bfc0 7c2e
000002c0: 5d24 0130 ef06 3531 9762 9132 953d e02f
000002d0: 0423 bb2e dda3 9032 fdda 6230 8893 0531
000002e0: 342a 1e2f bf63 4231 0270 3632 3c3d 8130
000002f0: cdda 0e31 cac5 3632 f7ce 532f 9ddd 312f
00000300: 9b59 a733 8de1 2633 360e a232 d6d9 8033
00000310: f3d1 a334 40e9 a132 173d ba34 4517 482d
00000320: 3e4a af2f ee27 1b2f 6c72 1930 4f0b 5a2e
00000330: 1af0 ad2f 4694 1830 05b1 c92d b7a1 2a2d
00000340: 7263 c330 2c59 1c30 767d 0731 acfc f92e
00000350: e3f0 252f f7e0 0631 a631 ae2f 972f 6c2f
00000360: d855 0330 db9f d42e 2c84 382f 4e98 542e
00000370: 85ff e82e 31fb 352f e84a 462d af22 882e
00000380: 4e5c eb2b 8c53 e42f 59d3 da2e 53fd f92f
00000390: 1432 6c31 d9d6 db2e 33d5 652e 888d 572b
000003a0: d015 7d33 bd03 9632 c681 a432 09ef 9732
000003b0: 7aad 9233 0aa5 a532 204d 7931 d027 792f
000003c0: 25b2 da31 817c b530 bb68 5d30 f48d 4730
000003d0: 991b 8a31 4aba 5d30 bd21 262f a231 b02d
000003e0: 10cb 1731 1af4 2030 ded6 1d31 f7e2 a72f
000003f0: 438b c130 d8a0 1c31 8519 592f 3c26 682f

exp_avg f4 [512]
7.5675835e-06 2.3280395e-06 -6.2921886e-06 -2.5917583e-05 2.5828544e-05 -6.6176384e-05 -1.4610324e-05 2.5634468e-05
4.7261277e-05 5.7753346e-06 -3.8231e-06 -1.6452519e-05 9.0320907e-07 1.733163e-07 -1.26299e-06 9.131278e-07
-7.870927e-07 -0.003927292 -1.2564314e-05 4.2809632e-05 -1.6269798e-05 -7.972391e-05 5.506698e-07 -2.4199511e-05
-7.556388e-05 -7.382861e-06 2.0834814e-07 4.9099945e-06 8.260746e-06 5.0798604e-05 -2.7721204e-05 -2.5835105e-05
4.532913e-05 -1.3003285e-05 -6.0530947e-05 6.4036067e-07 -2.085029e-05 -5.886947e-06 -7.5785947e-06 2.1077776e-07
-1.4528504e-05 -8.4292765e-07 5.285327e-07 -2.78402e-07 0.00013737765 -1.2392008e-05 2.795239e-06 9.397035e-07
-8.935527e-05 5.7704656e-06 -6.751177e-07 -4.3318818e-05 7.880865e-06 -2.9249868e-05 -0.00010676476 -7.759337e-06
-1.4421925e-05 -4.952891e-06 1.890282e-05 1.2766409e-05 4.294292e-05 0.00010613503 -1.19806255e-05 -6.9943667e-06
-8.031662e-05 6.027303e-07 -3.5986898e-07 -0.00027694483 5.135606e-06 1.6690833e-06 -5.268297e-07 -4.1338462e-06
-1.7005344e-05 -1.2922726e-06 1.327496e-05 1.537358e-05 3.197954e-05 1.5081711e-05 1.3746774e-05 -4.4673325e-06
-2.3356688e-05 -1.5218616e-05 -1.0430444e-05 1.4708124e-05 7.2041607e-06 -3.2520265e-06 -2.7362563e-05 2.096549e-05
2.7761932e-06 -2.4877885e-05 -6.2356325e-05 -1.7748775e-05 2.4345164e-08 -3.2393895e-05 -1.6006758e-06 -3.5895882e-05
1.9613205e-06 -3.5423476e-05 1.209386e-06 2.1162028e-05 -4.6730506e-06 -8.729851e-05 -2.8105333e-05 -1.784489e-05
1.427202e-05 -1.9092138e-05 -6.5001077e-06 -3.250906e-05 -6.7715075e-05 -0.00011686134 7.5730086e-06 2.6320588e-06
0.00015555923 -1.5122852e-05 -2.0297075e-05 1.2959721e-05 -9.902734e-07 1.850246e-05 -1.1326709e-05 -1.5474738e-05
-9.038235e-07 -1.6430089e-05 -0.010355468 -2.2243898e-05 1.0029068e-05 -0.00033046046 -4.3275744e-05 -1.5519949e-05
-1.0807999e-05 1.3780036e-05 -1.796672e-05 -7.80919e-05 -0.00943447 1.886003e-05 2.1072708e-07 6.5035597e-06
6.74448e-05 5.561567e-06 -3.3590477e-05 -1.461198e-07 -1.9880522e-06 6.002718e-07 2.472218e-05 1.0881397e-05
-8.972004e-06 -1.5113801e-06 -4.3876567e-05 9.537269e-06 -1.189156e-05 -1.3540725e-05 -2.793233e-05 2.7946557e-05
-2.0938536e-07 2.0971782e-05 -1.407106e-05 1.5734371e-05 -3.3531715e-06 -2.925725e-07 -2.6712175e-07 3.0183654e-05
-1.034207e-05 -1.7041273e-05 -2.0414915e-05 -1.6441067e-05 9.733492e-06 3.874071e-06 1.1764916e-05 1.9881822e-06
-2.46282e-05 -2.985293e-06 -9.453313e-06 3.3736484e-05 2.933463e-06 4.531771e-06 -2.0956206e-05 -2.8766948e-05
0.0001341126 -1.5194461e-05 -2.251083e-05 -4.7859726e-07 -2.8151464e-05 6.6357217e-07 8.3042704e-07 1.4772762e-07
1.8764174e-05 1.9267566e-06 -2.2286005e-05 -1.8445666e-06 8.03707e-05 3.134735e-05 9.179277e-07 -8.366995e-06
7.064549e-07 -0.00019380797 -4.7727885e-06 -5.381814e-06 1.9275685e-05 -1.7230559e-05 9.813865e-07 -2.620416e-07
5.704069e-07 4.074276e-06 2.945031e-06 2.6776306e-05 7.2876566e-05 -9.195281e-06 -2.0324446e-06 2.5156203e-06
-1.9055613e-05 -2.2912766e-06 1.3784387e-06 8.477122e-06 3.295009e-08 1.7734048e-05 1.8784447e-05 -2.2523156e-05
4.804169e-05 1.6413964e-06 -8.6373984e-05 -2.6916788e-07 -3.7923382e-06 3.1927462e-05 -4.603949e-05 -2.6225207e-06
-1.7519982e-06 -1.2524011e-05 4.0331033e-06 -4.3398174e-07 -1.10507945e-05 1.8759803e-07 -0.00012616043 5.9076474e-06
-4.9574246e-06 4.598333e-06 0.0005907567 3.1814845e-05 -1.4966225e-05 -5.7217044e-06 -0.00024386242 -1.726778e-05
1.0668225e-05 8.555085e-06 -2.797873e-07 -1.1547573e-06 4.8898863e-05 -0.00010658853 -3.1969834e-05 -9.335133e-06
-3.3803797e-05 5.5388714e-06 1.3022053e-06 1.0720489e-06 -2.3677516e-05 1.6209575e-05 -7.815665e-07 7.3164033e-06
00000000: 0ced fd36 6a3b 1c36 7d21 d3b6 9669 d9b7
00000010: 60aa d837 2dc8 8ab8 dd1e 75b7 9a09 d737
00000020: 693a 4638 bfc9 c136 2e48 80b6 8403 8ab7
00000030: 0e74 7235 d218 3a34 0284 a9b5 aa1d 7535
00000040: 9948 53b5 83b0 80bb 51cb 52b7 7e8e 3338
00000050: 207b 88b7 7331 a7b8 bed1 1335 0e00 cbb7
00000060: 0d78 9eb8 4bba f7b6 4db6 5f34 88c0 a436
00000070: a297 0a37 9610 5538 d58a e8b7 77b8 d8b7
00000080: c81f 3e38 af28 5ab7 9ce2 7db8 40e5 2b35
00000090: a8e7 aeb7 7d88 c5b6 a24b feb6 2652 6234
000000a0: 73bf 73b7 8c45 62b5 7ee0 0d35 4877 95b4
000000b0: 080d 1039 45e7 4fb7 d795 3b36 ef3f 7c35
000000c0: 3f64 bbb8 ec9f c136 bc39 35b5 3ab1 35b8
000000d0: 0f38 0437 9d5d f5b7 e5e6 dfb8 192e 02b7
000000e0: b2f5 71b7 0231 a6b6 7f91 9e37 4f2f 5637
000000f0: 9c1d 3438 cf94 de38 6500 49b7 27b1 eab6
00000100: a86f a8b8 50cb 2135 0434 c1b4 e832 91b9
00000110: 8552 ac36 4405 e035 766b 0db5 78b5 8ab6
00000120: b3a6 8eb7 2672 adb5 85b7 5e37 83f6 8037
00000130: c521 0638 7507 7d37 f2a1 6637 18e6 95b6
00000140: 1bee c3b7 7553 7fb7 6afe 2eb7 e9c2 7637
00000150: 45bb f136 643d 5ab6 a888 e5b7 0cdf af37
00000160: a34e 3a36 dab0 d0b7 4cc5 82b8 34e3 94b7
00000170: 951f d132 aede 07b8 cdd6 d6b5 e98e 16b8
00000180: 3b9f 0336 ab93 14b8 3052 a235 1c85 b137
00000190: 33cd 9cb6 0814 b7b8 bec3 ebb7 9cb1 95b7
000001a0: dc71 6f37 0e28 a0b7 801b dab6 565a 08b8
000001b0: 4102 8eb8 7413 f5b8 a61b fe36 6da2 3036
000001c0: 9d1d 2339 28b8 7db7 a343 aab7 946d 5937
000001d0: 89e9 84b5 bb35 9b37 d807 3eb7 bfcf 81b7
000001e0: 479e 72b5 59d3 89b7 fba9 29bc 6898 bab7
000001f0: 8542 2837 a741 adb9 fa82 35b8 d630 82b7
00000200: 0154 35b7 ce30 6737 3db7 96b7 45c5 a3b8
00000210: 0993 1abc 9b35 9e37 3844 6234 2739 da36
00000220: 2771 8d38 7f9d ba36 80e3 0cb8 1be5 1cb4
00000230: 7a6a 05b6 5d22 2135 7a62 cf37 3f8f 3637
00000240: 7786 16b7 a0da cab5 1b08 38b8 4202 2037
00000250: dc81 47b7 f92c 63b7 3950 eab7 c66e ea37
00000260: 69d3 60b4 8fec af37 be12 6cb7 4efd 8337
00000270: 0c07 61b6 dc12 9db4 ef68 8fb4 e732 fd37
00000280: da82 2db7 dbf3 8eb7 b240 abb7 ecea 89b7
00000290: 084d 2337 04fe 8136 ee61 4537 b66c 0536
000002a0: a898 ceb7 f156 48b6 ac99 1eb7 4680 0d38
000002b0: 83dc 4436 9e0f 9836 1ccb afb7 8d50 f1b7
000002c0: 94a0 0c39 b7eb 7eb7 a4d5 bcb7 f478 00b5
000002d0: cf26 ecb7 5520 3235 83ea 5e35 0f9f 1e34
000002e0: c267 9d37 6d4d 0136 d5f2 bab7 d392 f7b5
000002f0: b18c a838 f67a 0338 8367 7635 f85f 0cb7
00000300: 36a3 3d35 ee38 4bb9 f125 a0b6 6e95 b4b6
00000310: 38b2 a137 588a 90b7 2fb8 8335 b9ae 8cb4
00000320: 101e 1935 c4b5 8836 3fa3 4536 ae9d e037
00000330: 4fd5 9838 6e45 1ab7 2265 08b6 07d2 2836
00000340: 9ed9 9fb7 d5c3 19b6 cb02 b935 f638 0e37
00000350: 0285 0d33 94c3 9437 4b93 9d37 1cf0 bcb7
00000360: 5f80 4938 f34d dc35 ae23 b5b8 2782 90b4
00000370: e07f 7eb6 dae9 0538 871a 41b8 90fe 2fb6
00000380: 3326 ebb5 381e 52b7 1854 8736 fffd e8b4
00000390: cd66 39b7 8e6e 4934 ef49 04b9 4e3a c636
000003a0: f457 a6b6 614b 9a36 03dd 1a3a ee70 0538
000003b0: 7217 7bb7 11fd bfb6 52b5 7fb9 46da 90b7
000003c0: adfb 3237 cf87 0f37 ac35 96b4 29fd 9ab5
000003d0: c118 4d38 4888 dfb8 5917 06b8 179e 1cb7
000003e0: 8dc8 0db8 8bda b936 6fc7 ae35 52e3 8f35
000003f0: 149f c6b7 ccf9 8737 d7cc 51b5 6d7f f536

exp_avg_sq f4 [512]
8.5744173e-10 5.6601328e-11 1.4344528e-10 7.3526247e-09 4.71187e-09 8.21881e-08 1.8509375e-09 1.0167235e-08
9.473882e-09 9.3737125e-09 2.675211e-10 1.4757799e-09 6.56165e-10 5.1032942e-11 3.3723715e-10 1.129164e-10
2.2834856e-11 0.0016411897 7.7356044e-10 6.618746e-09 9.1077623e-10 2.9794816e-08 8.715399e-11 3.3310326e-09
2.8691795e-07 1.9399962e-10 8.661552e-11 2.768575e-10 1.1160379e-09 9.7219086e-08 3.3748573e-09 1.2748692e-09
4.8118918e-09 4.16697e-10 2.615673e-08 3.299582e-11 1.1495628e-09 1.7519344e-10 5.5229255e-10 4.698419e-10
5.2737065e-10 5.443955e-10 3.496929e-11 6.817731e-10 1.5290695e-07 3.123363e-09 6.04625e-11 3.878377e-11
4.4680494e-08 1.5109239e-10 2.1294343e-11 6.689887e-09 9.035967e-09 2.801941e-09 3.7542677e-08 6.6493233e-10
2.7209726e-09 3.142234e-10 1.81498e-08 9.375617e-10 9.582055e-09 4.4089376e-08 6.9720113e-10 1.4716829e-10
4.104194e-08 7.205773e-10 1.8067351e-11 8.783271e-06 4.871782e-10 2.2858423e-10 1.646686e-10 2.930248e-10
5.914026e-10 5.8146273e-11 6.605844e-08 1.541113e-09 3.8588457e-09 1.2326867e-09 1.1805199e-09 1.5087502e-10
2.4456621e-09 7.1524486e-10 8.629438e-10 1.8630861e-09 1.1741066e-09 4.2954404e-10 4.064992e-08 1.3291221e-09
1.2616684e-08 3.783446e-08 1.0312631e-08 3.1850194e-09 1.5992591e-09 8.150071e-09 8.061742e-11 4.7702144e-09
2.0174092e-11 5.4144307e-09 1.8624382e-11 2.2914742e-08 1.1483625e-09 4.131258e-08 2.8154195e-09 2.2695834e-09
8.760421e-09 3.1177343e-09 4.487218e-10 6.0994294e-09 1.3702503e-08 3.1175432e-08 3.6598051e-09 4.3495593e-11
1.3167609e-05 4.8213306e-10 2.392456e-09 4.061143e-10 1.2926531e-11 3.7367975e-09 1.2013192e-09 5.468275e-10
1.9696035e-10 1.5885713e-09 0.0012675603 4.7389026e-09 4.7690357e-10 3.7218288e-06 5.927204e-09 4.093452e-09
2.4432245e-10 1.6437387e-07 1.6800975e-09 3.8002383e-08 0.0024346448 2.4343425e-09 1.8321575e-11 4.557773e-10
7.4304545e-08 1.16048415e-08 1.1308848e-08 2.8883152e-12 1.4907126e-10 3.4936433e-12 4.213594e-09 2.5409177e-08
7.9873796e-10 1.6806609e-10 1.0045653e-08 7.1971247e-09 7.0096196e-10 1.0798488e-08 2.8078428e-09 2.6568887e-09
2.1489735e-11 1.2470128e-09 1.2503956e-09 1.8991495e-09 4.459235e-10 1.4657475e-11 3.45075e-11 3.4245e-09
5.9893734e-10 3.3847984e-09 4.298008e-09 9.492529e-10 1.3208483e-09 1.0952338e-09 6.914896e-10 1.7411064e-09
1.2428465e-09 5.7928334e-10 2.06083e-09 2.232805e-07 1.4779512e-10 1.2249175e-10 2.8543874e-09 2.4970122e-09
5.939658e-08 3.275358e-10 3.913695e-09 1.2673142e-11 3.1054306e-08 3.27802e-11 1.7355822e-11 2.532067e-11
6.276288e-09 8.446219e-11 1.4487436e-09 1.3965976e-10 2.0084622e-08 6.8055437e-09 3.4771398e-11 3.4753064e-10
4.8774942e-11 1.5321274e-06 1.2838373e-09 5.2998866e-10 1.4783198e-09 1.4741688e-09 1.5782267e-09 2.0965061e-11
2.0425961e-10 2.9100786e-09 2.0957093e-10 6.7734813e-09 4.0452708e-08 5.795555e-10 3.3101893e-10 1.949687e-09
1.991279e-08 8.7733165e-10 3.555158e-10 1.2015824e-09 6.579911e-11 2.284756e-09 6.7787376e-09 5.562766e-09
2.1510099e-08 1.1175035e-11 8.965345e-08 5.970004e-11 2.4334335e-10 3.983738e-09 1.0236328e-08 2.8836304e-09
6.828306e-08 3.072661e-09 4.1993428e-10 6.444402e-11 3.6091832e-10 5.4871552e-11 1.3625213e-07 3.0713443e-09
3.156919e-09 8.7040924e-10 1.3602973e-06 5.0488946e-09 8.942725e-10 4.853407e-10 1.1859138e-06 1.1008346e-09
3.4164056e-09 7.493229e-10 5.291144e-10 4.0991488e-10 7.53829e-09 5.377129e-08 1.4688316e-08 1.1135284e-09
2.0231932e-09 9.32674e-09 5.345757e-10 4.412737e-11 9.319753e-10 1.0377599e-08 1.2722864e-10 2.385484e-09
00000000: 19b1 6b30 6eef 782e 42b8 1d2f 5fa2 fc31
00000010: 0ce6 a131 637f b033 1364 fe30 f9ab 2e32
00000020: 93c2 2232 060a 2132 3f12 932f 64d4 ca30
00000030: 825d 3430 fc71 602e e965 b92f 484e f82e
00000040: 86db c82d 301d d73a 7aa2 5430 1b6b e331
00000050: 2e5a 7a30 7eef ff32 56a7 bf2e 25e8 6431
00000060: b409 9a34 0a4e 552f 3478 be2e 3b34 982f
00000070: 1863 9930 c2c6 d033 1eeb 6731 7937 af30
00000080: d955 a531 e414 e52f 42af e032 fe1d 112e
00000090: a5fe 9d30 92a0 402f 22d0 1730 2f26 0130
000000a0: 69f6 1030 6da4 1530 eccb 192e 8467 3b30
000000b0: be2e 2434 c8a2 5631 5df5 842e a592 2a2e
000000c0: b9e6 3f33 ba20 262f 994e bb2d dedc e531
000000d0: 9a3c 1b32 448c 4031 9c3e 2133 74c6 3630
000000e0: dbfb 3a31 03bf ac2f d5e7 9b32 85db 8030
000000f0: 539e 2432 c85c 3d33 2ba5 3f30 31d0 212f
00000100: 1746 3033 1f12 4630 0fec 9e2d dd5b 1337
00000110: 1eea 0530 be54 7b2f 170e 352f 9317 a12f
00000120: 4290 2230 e2ba 7f2e 03dc 8d33 18cf d330
00000130: c496 8431 4f6b a930 da3f a230 8be3 252f
00000140: 8b10 2831 e29a 4430 4634 6d30 c207 0031
00000150: 345e a130 f324 ec2f 0f97 2e33 54ac b630
00000160: c3c0 5832 6e7f 2233 6e2b 3132 74df 5a31
00000170: edcc db30 6404 0c32 9347 b12e 40e7 a331
00000180: 0474 b12d d609 ba31 61d2 a32d 0dd6 c432
00000190: 6ad4 9d30 a96f 3133 6279 4131 eff6 1b31
000001a0: bd80 1632 c33f 5631 fbaf f62f 2693 d131
000001b0: 3f68 6b32 c0e5 0533 f97f 7b31 af4b 3f2e
000001c0: 73ea 5c37 1987 0430 8868 2431 8243 df2f
000001d0: ec67 632d 3865 8031 a91b a530 914f 1630
000001e0: 698f 582f e254 da30 4424 a63a d4d3 a231
000001f0: 1b17 0330 88c4 7936 3da8 cb31 62a6 8c31
00000200: 5451 862f bf7e 3034 2de9 e630 1038 2333
00000210: 908e 1f3b 6849 2731 8528 a12d f490 fa2f
00000220: 5b91 9f33 a25e 4732 d748 4232 433f 4b2c
00000230: d4e7 232f e2d7 752c 2ac7 9031 5f43 da32
00000240: 308e 5b30 66ca 382f 4095 2c32 944a f731
00000250: d0ad 4030 4184 3932 18f4 4031 7b94 3631
00000260: 9506 bd2d 5d63 ab30 62da ab30 3182 0231
00000270: 2726 f52f b3ed 802d fec3 172e 7154 6b31
00000280: 78a2 2430 019a 6831 aead 9331 de76 8230
00000290: 3889 b530 1d87 9630 4113 3e30 bc4b ef30
000002a0: c6d0 aa30 713b 1f30 819e 0d31 e0be 6f34
000002b0: a180 222f 5dae 062f ea26 4431 e797 2b31
000002c0: 3b1b 7f33 9110 b42f 3a79 8631 c2f2 5e2d
000002d0: 9260 0533 392b 102e d6a9 982d 14b9 de2d
000002e0: d0a6 d731 fcbb b92e 221d c730 ba8e 192f
000002f0: 8d86 ac32 32d6 e931 1ded 182e 970e bf2f
00000300: b483 562e 7fa3 cd35 0273 b030 a3ae 1130
00000310: c12d cb30 b49b ca30 eae8 d830 1f69 b82d
00000320: f895 602f a5fa 4731 f96c 662f 2cbc e831
00000330: 39be 2d33 984e 1f30 c6fa b52f 42fb 0531
00000340: b00c ab32 ba28 7130 6772 c32f ec24 a530
00000350: 9bb1 902e da01 1d31 68ea e831 9b22 bf31
00000360: 35c5 b832 e297 442d 8187 c033 2248 832e
00000370: 88c7 852f 54e1 8831 d9db 2f32 5d29 4631
00000380: 02a3 9233 d326 5331 7fdc e62f c2b6 8d2e
00000390: bd6a c62f e053 712e b34c 1234 a90f 5331
000003a0: 1bf1 5831 9b41 6f30 7693 b635 8c7a ad31
000003b0: d5d0 7530 d168 0530 b02b 9f35 2d4c 9730
000003c0: 0bc6 6a31 e9f8 4d30 1e71 1130 645a e12f
000003d0: c081 0132 29f2 6633 e657 7c32 cc0a 9930
000003e0: 6408 0b31 703b 2032 6cf1 1230 0013 422e
000003f0: f716 8030 2a49 3232 aee3 0b2f e1ed 2331
