src/domain/player/models/v1/weights/cluster_1/termination_25_model_01.pth (torch, 73574 bytes, 12 tensors)

network.0.weight f4 [512, 8]
0.013190087 -0.235323 -0.32337815 -0.4606186 0.047764763 0.13635823 0.07624571 -0.121832244
0.0040939883 -0.0016260529 -0.0016049002 0.08094993 0.2450905 -0.03324428 -0.0055183666 -0.06903208
-0.0017016245 0.0031578229 0.004969103 -1.2100348 -0.004239223 -0.00972321 -0.004248182 0.0041231704
-0.7306606 -0.0015767256 -0.06355474 -0.18430783 0.0820979 0.048864562 0.016821604 -0.52265215
-0.114826754 0.034476057 -0.10108091 0.0504289 0.068805896 0.09456738 -0.0071379715 0.028754793
0.03713725 -0.03442218 -0.08658786 -0.069895156 0.012822223 0.21782833 -0.057195906 0.07380024
-0.09124656 -0.081437506 0.1439604 0.112729356 -0.17394283 -0.18898132 -0.0039462266 -0.3724096
0.008797421 -0.00067804765 0.18241055 0.13278104 0.39875507 -0.25005808 0.019074475 -0.10709979
0.077674866 0.122917496 -0.48515043 -0.012823594 0.12551305 -0.018470582 0.12477909 0.028465224
0.0009777184 0.019110491 0.0717301 0.19771223 0.06017571 0.043720767 0.025727224 0.0055445204
-0.16091225 0.04963142 -0.032005947 0.11826734 0.18874557 0.15689048 -0.2018837 -0.072936155
-0.12538248 -0.017979616 -0.08699638 0.009092782 0.020691883 -0.0002919176 0.004333958 0.10307838
0.0002651158 -0.015891356 -0.10110679 -0.013196033 0.35892242 0.057668775 0.11023894 -0.13011459
0.025838071 -0.0708635 0.024014745 0.25667644 0.48358804 0.1139289 -0.163512 -0.008976942
-0.22957934 -0.063005276 -0.04463487 -0.026070807 0.4142705 0.10923353 0.057481483 -0.015136493
-0.01239505 0.14746045 0.24449599 0.03871022 -0.10227548 -0.25792205 0.017975975 -0.07366112
-0.5145487 0.3060857 -0.3269787 -0.0820082 0.028554844 0.36620215 0.029975142 -0.1765808
0.03181499 0.08202051 -0.25047633 -0.7833252 -0.15396531 0.31357393 0.0046808007 -0.021906525
-0.3114834 -0.073572285 0.14112552 -0.0062604984 -0.037897494 0.009281002 -0.06520329 0.10826379
0.037318394 -0.0171105 0.13309075 -0.023106376 0.038017094 -0.40855134 0.052431345 -0.03268631
-0.058305413 0.27496576 -0.12998757 0.1680462 0.21454094 0.30330724 -0.19913973 -0.2787013
-0.012132822 0.06355153 -0.041767072 0.13103944 0.24889904 -0.22510056 -0.72624844 -1.0204926
0.10660382 0.26633266 -0.032473393 -0.009263544 -0.024510236 -0.27374592 -0.05573559 0.027736666
0.009792036 -0.0090583 -0.37949505 0.06321106 0.08890346 -0.1788462 0.021307923 -1.109251
0.03208683 -0.025673583 0.0009278734 0.34328243 0.051346727 0.10817477 0.033885796 0.031569265
-0.016359974 0.0050024586 -0.11802744 -1.1786258 0.0018437594 -0.005408364 -0.16850105 0.025296496
0.0030537853 -0.041614257 0.32132384 0.13604054 -0.16572766 -0.16391191 -0.33321035 0.04248191
-0.15406533 -0.08554243 -0.027640376 0.1062667 0.4998392 0.14188997 -0.09206233 -0.031286333
0.01835144 -0.02435275 -0.14183637 -0.6724303 -0.005071282 -0.16263923 0.026993245 -0.87051487
-0.03214343 0.22275886 0.07904666 0.29039523 0.16657743 -0.24915794 -0.047279857 0.09276039
-0.01081953 -0.045210995 0.029747639 -0.8482579 0.14965786 0.0037830153 0.022241805 0.026484953
0.10389787 -0.3143819 -0.19014616 -0.17301813 -0.002438188 -0.36481982 0.08542274 0.11656099
00000000: 3c1b 583c 83f8 70be d291 a5be 33d6 ebbe
00000010: fca4 433d 7ea1 0b3e b626 9c3d 2f83 f9bd
00000020: dd26 863b 4821 d5ba 845b d2ba 14c9 a53d
00000030: 01f9 7a3e 272b 08bd 6ad3 b4bb b160 8dbd
00000040: 0b09 dfba 7af3 4e3b dbd3 a23b 6ce2 9abf
00000050: 2ee9 8abb 194e 1fbc 5534 8bbb a91b 873b
00000060: 930c 3bbf 22aa ceba fd28 82bd 31bb 3cbe
00000070: f222 a83d 3526 483d 76cd 893c 88cc 05bf
00000080: 4a2a ebbd c436 0d3d 8203 cfbd 898e 4e3d
00000090: 1bea 8c3d 8bac c13d a5e5 e9bb 2c8f eb3c
000000a0: 3b1d 183d 46fe 0cbd fa54 b1bd 3125 8fbd
000000b0: 4d14 523c 640e 5f3e 4146 6abd 9524 973d
000000c0: 7adf babd b5c8 a6bd 5b6a 133e a6de e63d
000000d0: 121e 32be 5284 41be 594f 81bb 79ac bebe
000000e0: 0f23 103c 02bf 31ba d5c9 3a3e c1f7 073e
000000f0: a029 cc3e 9d07 80be 1342 9c3c 2257 dbbd
00000100: 0014 9f3d 2bbc fb3d a365 f8be 0d1a 52bc
00000110: 7e86 003e 9e4f 97bc 2e8c ff3d e72f e93c
00000120: c926 803a 9b8d 9c3c 3be7 923d 1375 4a3e
00000130: ce7a 763d 8c14 333d e6c1 d23c cfae b53b
00000140: 2ec6 24be 514a 4b3d ab18 03bd 2636 f23d
00000150: 8546 413e e6a7 203e 9aba 4ebe 8d5f 95bd
00000160: 4464 00be fd49 93bc 282b b2bd e4f9 143c
00000170: 0682 a93c 840c 99b9 e003 8e3b c21a d33d
00000180: 3eff 8a39 972e 82bc 1411 cfbd 2d34 58bc
00000190: aec4 b73e 1836 6c3d f4c4 e13d c23c 05be
000001a0: 5daa d33c e220 91bd 92ba c43c 186b 833e
000001b0: da98 f73e 8e53 e93d b16f 27be 0614 13bc
000001c0: d916 6bbe e908 81bd 0ed3 36bd 7292 d5bc
000001d0: 431b d43e d4b5 df3d b471 6b3d 0eff 77bc
000001e0: 9c14 4bbc dfff 163e 285d 7a3e 9c8e 1e3d
000001f0: cf75 d1bd 5c0e 84be 5a42 933c a4db 96bd
00000200: 77b9 03bf 44b7 9c3e c169 a7be eaf3 a7bd
00000210: d9eb e93c d97e bb3e 6e8e f53c 99d1 34be
00000220: 6f50 023d 5ffa a73d 6f3e 80be 0088 48bf
00000230: 15a9 1dbe c38c a03e 6761 993b 5075 b3bc
00000240: c17a 9fbe 11ad 96bd 3583 103e de24 cdbb
00000250: 673a 1bbd 580f 183c 4d89 85bd 68b9 dd3d
00000260: 2cdb 183d 522b 8cbc f148 083e 9549 bdbc
00000270: d0b7 1b3d a42d d1be 40c2 563d 15e2 05bd
00000280: a8d1 6ebd 50c8 8c3e 761b 05be 4e14 2c3e
00000290: 9fb0 5b3e 164b 9b3e 49eb 4bbe f0b1 8ebe
000002a0: bec8 46bc 4e27 823d f313 2bbd 342f 063e
000002b0: 64df 7e3e c380 66be 6beb 39bf 809f 82bf
000002c0: 1b53 da3d c15c 883e d202 05bd 1fc6 17bc
000002d0: b1c9 c8bc 6d28 8cbe 014b 64bd 0138 e33c
000002e0: c76e 203c 4469 14bc 2d4d c2be cd74 813d
000002f0: 0413 b63d 7523 37be f48d ae3c f0fb 8dbf
00000300: 7b6d 033d 6851 d2bc 883c 733a b7c2 af3e
00000310: f250 523d bc8a dd3d d5cb 0a3d c64e 013d
00000320: 5a05 86bc aaeb a33b 5fb8 f1bd 36dd 96bf
00000330: 4daa f13a a538 b1bb 8a8b 2cbe 993a cf3c
00000340: 0422 483b b673 2abd 8f84 a43e 364e 0b3e
00000350: 83b4 29be 86d8 27be 8c9a aabe 8301 2e3d
00000360: 4dc3 1dbe df30 afbd 126e e2bc 5ba2 d93d
00000370: ecea ff3e 9b4b 113e 2d8b bcbd 1926 00bd
00000380: c255 963c 6b7f c7bc 8e3d 11be 6424 2cbf
00000390: ff2c a6bb e68a 26be f020 dd3c 10da 5ebf
000003a0: d4a8 03bd e61a 643e 37e3 a13d afae 943e
000003b0: 4693 2a3e 4223 7fbe 86a8 41bd 29f9 bd3d
000003c0: 6644 31bc 2a2f 39bd 52b1 f33c 6e27 59bf
000003d0: e93f 193e 77ec 773b 7234 b63c f9f6 d83c
000003e0: 68c8 d43d aaf6 a0be adb5 42be aa2b 31be
000003f0: 02ca 1fbb aac9 babe 1ef2 ae3d 87b7 ee3d

network.0.bias f4 [512]
-0.19936748 -0.07118062 -0.40853378 0.02936338 0.057066448 -0.0032018682 -0.6969901 -0.11761468
-0.0767556 -0.04779906 0.00041831442 0.09347046 -0.100903414 -0.28218937 -0.11453539 -0.67978203
-0.07152283 -0.29354945 -0.1326767 0.03631203 -0.6596977 -0.43938226 -0.053271987 -0.20047449
-0.6691893 -0.3766212 -0.27082548 -0.29661402 -0.2257429 -0.17865905 -0.40942425 -0.2726691
0.024409315 -0.27918974 -0.25207 -0.21941873 -0.12274583 -0.28381488 0.04986479 -0.050708186
-0.45829463 -0.17656864 0.0168814 0.009058888 0.03554348 -0.39861843 -0.2988844 0.063693464
-0.27770522 -0.4454221 0.0038879374 -0.12522264 -0.7227583 -0.16602284 -0.5431543 0.053072117
-0.18440607 -0.05264307 -0.31555337 -0.46940354 -0.12212155 -0.039347816 -0.034066554 -0.14798687
-0.2909502 0.116201065 -0.15026759 -0.31806663 0.01224646 -0.47409263 -0.28879306 0.094729386
-0.1415794 0.08272039 -0.1572687 -0.026644003 -0.030930012 -0.04250959 -0.46700215 -0.2984365
-0.27585468 -0.09452958 -0.449055 0.055640582 -0.1601741 -0.55152357 -0.22289172 -0.10990686
-0.13953711 0.10608272 -0.12326989 -0.24464604 -0.091948815 -0.21453936 0.090194374 -0.16258405
-0.19019842 -0.27964783 0.019253239 -0.15307409 0.09606877 0.016561648 -0.3015408 0.07335104
0.04657684 -0.061412323 -0.21671343 0.03701975 -0.2810937 -0.25569513 -0.3835586 -0.09089156
-0.22832711 -0.23900485 -0.3211263 -0.14273515 -0.4027952 -0.16655485 0.05883528 -0.38752875
0.026261156 -0.09380112 -0.19804515 -0.108758345 -0.16865441 -0.5004048 -0.13827205 -0.093460076
0.078631654 -0.25476485 -0.22754934 -0.30684978 -0.47141507 -0.11643214 -0.31103644 -0.49922562
-0.33990127 -0.16246174 -0.5621553 -0.21661513 -0.09571358 -0.01593103 -0.13837832 -0.1622872
0.0695527 0.099493995 -0.20709732 -0.099457495 -0.72914284 -0.041178487 -0.18926114 -0.13114804
-0.50096583 0.050520767 -0.28155562 -0.07780243 -0.4868906 -0.4292852 -0.070325896 0.016015576
-0.25805512 -0.12838326 -0.08027363 -0.07246216 -0.05496179 -0.18540193 -0.17789955 -0.5153349
-0.20877352 -0.3289614 -0.44738463 -0.5092889 -0.28019407 -0.09333619 0.038857292 -0.8005775
-0.30157313 -0.21466713 -0.44090876 -0.17271388 -0.44136915 -0.12076455 -0.1817963 -0.24066062
-0.19922172 0.10742157 0.077692576 -0.29130283 -0.2899063 -0.2997009 0.05749067 -1.0670515
0.01710761 0.07911571 -0.12430704 -0.23473175 -0.102379255 -0.3278155 0.09559494 -0.73889333
-0.4540608 0.098896 0.016358718 -0.08773426 -0.25644463 -0.26557112 -0.17245303 -0.36656895
-0.07830595 -0.6931268 -0.14945509 -0.5040309 -0.49360242 -0.11405453 -0.11586864 -0.28346914
-0.20272164 -0.08113593 -0.2613155 -0.7909881 -0.009938925 -0.38856357 -0.27013087 -0.5022876
-0.6613538 -0.08744676 -0.37841558 -0.5168109 -0.7207956 -0.6030964 0.047730654 -0.050949283
-0.7231851 -0.4958656 -0.15965381 -0.16126187 0.0487504 0.070929766 -0.1345291 -0.28670543
-0.29046267 0.029686548 -0.21133909 -0.21507794 -0.23073411 -0.10978757 0.009790218 -0.13535291
-0.3913889 -0.16953255 -0.4087504 -0.13217945 0.04512112 0.083280705 -0.30769548 -0.34321296
00000000: fd26 4cbe 25c7 91bd 572b d1be 798b f03c
00000010: 82be 693d 6fd6 51bb f16d 32bf f7df f0bd
00000020: 0a32 9dbd f2c8 43bd 3651 db39 716d bf3d
00000030: 73a6 cebd 207b 90be 8891 eabd 3206 2ebf
00000040: 907a 92bd 1d4c 96be 67dc 07be ecbb 143d
00000050: f3e1 28bf b6f6 e0be ba33 5abd 2f49 4dbe
00000060: fd4f 2bbf 7ed4 c0be a3a9 8abe cbdd 97be
00000070: 2629 67be 66f2 36be 0ea0 d1be 499b 8bbe
00000080: 0bf6 c73c f5f1 8ebe 520f 81be 4eaf 60be
00000090: 2a62 fbbd 2f50 91be 063f 4c3d 63b3 4fbd
000000a0: 98a5 eabe 69ce 34be dd4a 8a3c bb6b 143c
000000b0: 0a96 113d b717 ccbe 6007 99be b871 823d
000000c0: 612f 8ebe 5e0e e4be c4cc 7e3b 5d3a 00be
000000d0: b006 39bf e401 2abe 290c 0bbf 2662 593d
000000e0: f2d4 3cbe 43a0 57bd 3690 a1be a955 f0be
000000f0: dd1a fabd 2d2b 21bd 5f89 0bbd df89 17be
00000100: 6df7 94be d3fa ed3d bfdf 19be a1d9 a2be
00000110: 60a5 483c 45bc f2be afdc 93be 7b01 c23d
00000120: 31fa 10be 4f69 a93d 0c0b 21be 8644 dabc
00000130: f060 fdbc 891e 2ebd e81a efbe abcc 98be
00000140: d33c 8dbe b998 c1bd 89ea e5be 61e7 633d
00000150: ae04 24be a630 0dbf ba3d 64be d916 e1bd
00000160: d1e2 0ebe e641 d93d ed74 fcbd 7e84 7abe
00000170: a94f bcbd 35b0 5bbe d4b7 b83d 6f7c 26be
00000180: 60c3 42be 002e 8fbe f8b8 9d3c 74bf 1cbe
00000190: b4bf c43d 4bac 873c 8e63 9abe 1239 963d
000001a0: 5bc7 3e3d 7d8b 7bbd 20ea 5dbe 05a2 173d
000001b0: 83eb 8fbe 79ea 82be cb61 c4be 5b25 babd
000001c0: 95ce 69be b0bd 74be ab6a a4be 2a29 12be
000001d0: 2c3b cebe 5b8d 2abe 43fd 703d 2b6a c6be
000001e0: a321 d73c cd1a c0bd 59cc 4abe b2bc debd
000001f0: beb3 2cbe 871a 00bf 3097 0dbe ff67 bfbd
00000200: a209 a13d 8a70 82be b202 69be 6a1b 9dbe
00000210: 515d f1be f973 eebd 2b40 9fbe 809a ffbe
00000220: 8a07 aebe 5f5c 26be 69e9 0fbf 5bd0 5dbe
00000230: 7b05 c4bd cb81 82bc 0cb3 0dbe 9e2e 26be
00000240: a571 8e3d 82c3 cb3d 5211 54be 5fb0 cbbd
00000250: 1ba9 3abf c6aa 28bd accd 41be ac4b 06be
00000260: 4c3f 00bf ddee 4e3d 0f28 90be e156 9fbd
00000270: ba49 f9be 45cb dbbe 0607 90bd 1933 833c
00000280: cd1f 84be e776 03be 8066 a4bd 0a67 94bd
00000290: 9d1f 61bd 01da 3dbe 4d2b 36be fdec 03bf
000002a0: bac8 55be a16d a8be 990f e5be c260 02bf
000002b0: 9975 8fbe 0b27 bfbd d328 1f3d a6f2 4cbf
000002c0: cb67 9abe b3d1 5bbe cbbe e1be e8db 30be
000002d0: 23fb e1be 6853 f7bd cf28 3abe bd6f 76be
000002e0: c700 4cbe d7ff db3d 491d 9f3d a525 95be
000002f0: 996e 94be 6572 99be 567b 6b3d 2595 88bf
00000300: 4225 8c3c 6b07 a23d b094 febd 855d 70be
00000310: 37ac d1bd 6fd7 a7be 48c7 c33d 1d28 3dbf
00000320: a87a e8be fc89 ca3d b802 863c 05ae b3bd
00000330: b64c 83be f0f8 87be 8797 30be edae bbbe
00000340: df5e a0bd c270 31bf c10a 19be 2b08 01bf
00000350: 75b9 fcbe 6c95 e9bd 8a4c edbd de22 91be
00000360: 4396 4fbe 982a a6bd 25cb 85be 327e 4abf
00000370: dfd6 22bc cef1 c6be 984e 8abe ec95 00bf
00000380: 7c4e 29bf 4917 b3bd b0bf c1be b84d 04bf
00000390: 0f86 38bf 8764 1abf 3881 433d 32b0 50bd
000003a0: a922 39bf 19e2 fdbe 4a7c 23be d521 25be
000003b0: 80ae 473d a043 913d ffc1 09be 0ecb 92be
000003c0: 86b7 94be 3431 f33c 4669 58be 643d 5cbe
000003d0: 9045 6cbe 4ed8 e0bd 2767 203c f499 0abe
000003e0: 2064 c8be f199 2dbe bc47 d1be 0d5a 07be
000003f0: ecd0 383d 138f aa3d 438a 9dbe 9cb9 afbe

network.3.weight f4 [2, 512]
0.0488773 0.015353753 -4.171081 0.054569587 0.0012224185 0.019418407 0.12296448 -0.039967224
0.00142017 -0.01769505 0.0060417447 -0.056204684 -0.008608294 -0.004641809 -0.033403307 -0.52082837
0.02566697 0.029677358 -0.038819443 0.03129945 0.079415925 0.15256105 0.020212024 0.01610017
0.011989736 0.42947763 -0.0361015 -0.041119322 0.09538902 0.018645767 0.22109866 -0.027959479
-0.05664669 0.09324036 -0.02918946 0.015280228 -0.020839896 0.074302495 -0.039644673 0.051557478
-0.013402273 -0.12013106 -0.013181033 -0.0066916025 0.019616421 0.50522536 0.045405447 -0.015414645
-0.14507969 -0.12166908 0.053623226 0.026812559 -0.7792894 -0.09802774 -3.2393475 -0.0014295831
0.0073442515 0.040564917 -0.10336639 0.100834005 0.09585962 0.08668755 0.0057471097 -0.11181012
0.103348024 -0.010679595 -0.034829263 0.11382332 0.0050984025 0.034901287 0.15505126 0.004559885
-0.09287874 0.011273455 -0.030066151 -0.0022620682 -0.045948796 0.011257142 31.54976 0.060220513
-0.019768858 0.028301923 28.696535 0.017407153 0.0430919 0.10884777 0.09962865 -0.08021956
-0.030256873 -0.048199978 -0.17752755 -0.07912095 0.0038473713 -0.0012772072 -0.009577564 -0.23420367
-0.48903686 -0.11132403 -0.049419817 -0.108672746 -0.023004001 -0.022551572 0.06506928 -0.049654756
-0.02604988 0.034190122 -0.082527116 0.03516007 0.06448103 -0.3505845 0.6461017 -0.069146685
-1.3836884 0.133009 -0.29839373 0.06269645 -0.23379728 0.013285716 -0.058957227 0.017332021
-0.05869399 -0.07416345 -0.19839731 -0.0006904326 -0.068399325 0.032032892 -0.080741204 0.046596766
-0.0034324431 0.019661283 -0.2564087 0.042887427 0.14343637 0.010201318 -0.91779184 -0.054558843
-0.17970969 0.122195505 -0.053236995 0.110909216 0.037211034 -0.07099447 -0.09482254 0.009830127
0.0039541153 0.0015805935 -0.013738576 0.025792658 -0.19656584 0.037557058 0.023997976 -0.015788134
0.115305305 -0.036187373 -0.032617714 0.23336294 35.148857 0.00014110915 -0.028115664 -0.027885236
0.079501696 0.041571073 0.031062488 -0.058367677 0.07106171 -0.0143701015 0.057583038 0.4760391
-0.41358465 -1.1290131 -0.23895006 46.24601 -0.0298935 -0.060201578 -0.061594386 -0.020113725
0.059638135 0.061665606 0.026988469 0.009111277 0.03385475 0.031283457 -0.099688806 0.15258913
0.01589611 0.017298518 -0.031219821 -0.017224433 0.121626586 -0.08789237 -0.0069193044 -0.57455295
-0.0019983032 -0.051043283 -0.06380753 -0.013399168 0.00952341 -0.0471264 -0.0018861974 -0.06738037
0.06223381 -0.027423516 -0.056983158 0.031605154 -0.20042345 0.14340454 0.03908976 0.008244688
-0.016713109 -0.096017994 0.025022296 41.235912 0.2680922 0.16984014 -0.06537395 0.06578676
0.13861942 -0.025700511 -0.36418876 -0.97598875 -0.046516377 -0.040328737 -0.009583712 0.103255965
0.032444075 -0.18972369 0.012315602 0.2359915 -0.07693328 0.037581567 0.015756063 -0.016796136
0.49326637 -0.23751166 -0.094222955 0.076744 0.006110698 -0.019369556 -0.08099253 0.014236329
-0.3895653 0.02736076 0.15337472 0.1356085 0.022618672 -0.03968902 0.01237514 0.004795138
0.08636082 0.0141493585 0.028121654 0.045114957 0.029847838 -0.02485921 -0.045894258 -0.02202454
00000000: 9033 483d 4f8e 7b3c 7f79 85c0 5c84 5f3d
00000010: 8f39 a03a 5a13 9f3c cdd4 fb3d acb4 23bd
00000020: ff24 ba3a 36f5 90bc d4f9 c53b e236 66bd
00000030: cd09 0dbc 511a 98bb e8d1 08bd 0255 05bf
00000040: 8a43 d23c ee1d f33c 2301 1fbd da33 003d
00000050: d1a4 a23d f738 1c3e b093 a53c 81e4 833c
00000060: 9970 443c 7ee4 db3e 2bdf 13bd bc6c 28bd
00000070: 525b c33d 02bf 983c b067 623e 470b e5bc
00000080: 5c06 68bd cdf4 be3d bc1e efbc ec59 7a3c
00000090: 6eb8 aabc e82b 983d 7462 22bd ef2d 533d
000000a0: 3595 5bbc 4607 f6bd 42f5 57bc 3b45 dbbb
000000b0: 9eb2 a03c 7356 013f 10fb 393d b58d 7cbc
000000c0: c58f 14be a32d f9bd 07a4 5b3d 03a6 db3c
000000d0: 837f 47bf c5c2 c8bd 7851 4fc0 d960 bbba
000000e0: 0ca8 f03b 6627 263d c2b1 d3bd 0f82 ce3d
000000f0: 0c52 c43d 3e89 b13d 4052 bc3b b4fc e4bd
00000100: 21a8 d33d 78f9 2ebc 21a9 0ebd 331c e93d
00000110: 8010 a73b a7f4 0e3d c2c5 1e3e 166b 953b
00000120: 3537 bebd 4cb4 383c 4a4d f6bc 353f 14bb
00000130: ce34 3cbd e06f 383c e965 fc41 c9a9 763d
00000140: 4df2 a1bc 6fd9 e73c 8192 e541 7299 8e3c
00000150: 2281 303d 94eb de3d 1b0a cc3d 274a a4bd
00000160: 43dd f7bc 576d 45bd c8c9 35be 2a0a a2bd
00000170: 2e24 7c3b f667 a7ba 37eb 1cbc 16d3 6fbe
00000180: 0a63 fabe dafd e3bd 6f6c 4abd d18f debd
00000190: e372 bcbc 13be b8bc 0b43 853d c962 4bbd
000001a0: 8f66 d5bc f10a 0c3d fa03 a9bd 0104 103d
000001b0: a10e 843d d07f b3be ec66 253f c79c 8dbd
000001c0: b41c b1bf 8333 083e 10c7 98be ff66 803d
000001d0: 8e68 6fbe 55ac 593c 227d 71bd e2fb 8d3c
000001e0: 1c69 70bd 02e3 97bd aa28 4bbe 26fe 34ba
000001f0: f214 8cbd ec34 033d a55b a5bd 40dc 3e3d
00000200: d7f2 60bb b310 a13c 0048 83be baaa 2f3d
00000210: fce0 123e 6e23 273c 68f4 6abf 1879 5fbd
00000220: d105 38be a341 fa3d 090f 5abd 5f24 e33d
00000230: 996a 183d 8c65 91bd 5232 c2bd 8a0e 213c
00000240: 8691 813b eb2b cf3a c417 61bc 204b d33c
00000250: 8e48 49be 6ed5 193d 6797 c43c 1e56 81bc
00000260: 3025 ec3d 3639 14bd 279a 05bd b2f6 6e3e
00000270: 6e98 0c42 b3f6 1339 d252 e6bc 946f e4bc
00000280: c9d1 a23d 6e46 2a3d c276 fe3c f212 6fbd
00000290: cd88 913d 9370 6bbc 31dc 6b3d 66bb f33e
000002a0: 5ec1 d3be 8083 90bf 53af 74be eafb 3842
000002b0: 37e3 f4bc ee95 76bd 654a 7cbd 8ac5 a4bc
000002c0: 1e47 743d 1395 7c3d ec16 dd3c 7747 153c
000002d0: 47ab 0a3d 1523 003d a529 ccbd 5340 1c3e
000002e0: 8f38 823c 9fb5 8d3c b6c0 ffbc 411a 8dbc
000002f0: 5c17 f93d ea00 b4bd 55bb e2bb e715 13bf
00000300: f7f5 02bb c312 51bd 86ad 82bd 2f88 5bbc
00000310: 1408 1c3c 9d07 41bd 483a f7ba b8fe 89bd
00000320: e1e8 7e3d 48a7 e0bc 2c67 69bd 6874 013d
00000330: ce3b 4dbe a4d8 123e 961c 203d ba14 073c
00000340: eee9 88bc 15a5 c4bd 8ffb cc3c 93f1 2442
00000350: 6143 893e 93ea 2d3e c7e2 85bd 35bb 863d
00000360: 40f2 0d3e e189 d2bc f376 babe 66da 79bf
00000370: f587 3ebd bf2f 25bd 0005 1dbc dd77 d33d
00000380: 14e4 043d ed46 42be 61c7 493c c1a7 713e
00000390: 328f 9dbd 21ef 193d dc12 813c 0d98 89bc
000003a0: 698d fc3e 4236 73be f7f7 c0bd f52b 9d3d
000003b0: 403c c83b e7ac 9ebc 69df a5bd 7e3f 693c
000003c0: 1a75 c7be ac23 e03c 430e 1d3e f4dc 0a3e
000003d0: cb4a b93c f490 22bd 19c1 4a3c 8820 9d3b
000003e0: f1dd b03d b6d2 673c 625f e63c 76ca 383d
000003f0: 7483 f43c 8ba5 cbbc 9efb 3bbd cf6c b4bc

network.3.bias f4 [2]
-0.21687907 0.23152177
00000000: 8c15 5ebe 0b14 6d3e

exp_avg f4 [512, 8]
-2.2193606e-06 7.597126e-06 1.533811e-06 3.053677e-06 -5.358074e-06 1.6763512e-06 -2.009368e-05 3.7818077e-07
-3.0218794e-06 1.0064246e-06 2.15023e-06 -1.8235739e-06 3.7497912e-06 1.8678546e-06 1.2034643e-06 -5.643576e-07
-9.791187e-06 -0.00025074964 -0.000114509625 -0.00018429047 0.0010901437 -0.00010504055 -0.0002740819 0.0016469718
-5.6463705e-07 1.3321698e-05 -5.0860194e-06 4.1670673e-06 -2.6115833e-05 -4.8882575e-06 -2.9345121e-05 4.4584942e-07
2.4693713e-07 -8.5039494e-07 6.229002e-06 -6.340982e-06 7.7803215e-06 6.3264733e-06 1.5278762e-06 5.0710614e-06
-1.0062112e-06 -2.531152e-06 9.733163e-07 -9.196714e-07 2.668883e-06 9.3660503e-07 8.797686e-08 3.5458052e-06
-6.3624094e-07 -1.0015078e-05 3.907928e-06 4.8732586e-06 -9.929439e-06 3.8902554e-06 2.9338955e-07 -6.421721e-07
-1.7621709e-06 9.015817e-07 1.6462672e-06 -3.2165858e-06 3.7286397e-06 1.7330681e-06 7.046002e-06 -6.033441e-07
-6.076679e-07 6.790766e-07 -2.068892e-06 6.341217e-06 -6.2244108e-06 -2.3536152e-06 -1.5137182e-05 -7.184381e-06
-4.0568525e-06 -4.5367062e-07 1.7201013e-06 -2.6083062e-06 2.3218035e-06 8.804035e-07 1.1432636e-05 6.409541e-06
5.209965e-07 1.2494614e-07 5.0247363e-06 -1.0982453e-05 1.4736937e-05 4.7182543e-06 -3.011571e-07 -1.0227069e-06
-3.1894615e-07 -3.5839191e-06 6.3708126e-06 -3.580938e-06 1.2152534e-05 5.69458e-06 1.5822558e-05 5.8627193e-06
-3.1309457e-06 5.422087e-07 1.9177269e-06 -3.520653e-06 8.459724e-06 1.1847414e-06 1.4848771e-05 -9.264962e-07
6.963407e-07 -2.148737e-06 3.454084e-07 -1.2313612e-07 2.7059086e-06 -6.8103316e-07 5.6608303e-07 -5.2917636e-07
-2.0835732e-06 -6.5646323e-06 4.0036653e-06 -4.439587e-06 5.9626627e-06 2.5498282e-06 2.4303235e-05 1.029516e-05
-2.639043e-06 1.6514285e-05 1.3370471e-05 8.2582636e-05 6.354286e-06 -1.0723418e-05 0.00044163474 -3.161979e-07
-8.5401274e-07 5.011797e-07 -9.538922e-06 2.5301104e-06 -1.9928544e-05 -9.623025e-06 -3.1323492e-05 1.2638803e-06
1.3640212e-06 2.5452607e-06 5.497718e-06 -2.9536052e-06 -1.0637904e-05 5.229316e-06 -1.6597638e-05 -1.1739982e-06
5.2035094e-08 -4.360057e-06 -3.1025638e-07 -1.732837e-06 1.2242901e-06 -3.5895334e-07 -1.0039613e-06 6.9335606e-06
8.861829e-07 6.086524e-06 -6.283078e-06 -1.0448531e-06 -1.2676817e-05 -5.5231308e-06 -1.8614137e-05 1.051742e-06
1.7621408e-06 1.0776768e-06 1.7782415e-05 3.4662285e-06 2.68715e-06 1.9525083e-05 6.1833925e-06 -2.2387185e-06
-6.5290346e-06 2.6174223e-06 -6.5643026e-06 1.3176326e-05 7.2445578e-06 -5.866792e-06 -9.3807614e-07 8.972171e-08
3.0103015e-06 2.0079758e-06 -1.5278363e-06 4.9774185e-06 -4.3043137e-06 -2.0123227e-06 1.463199e-06 -7.2587336e-06
-7.425342e-06 1.1687864e-05 -6.5613062e-06 1.0214101e-05 4.083667e-06 -6.68668e-06 -3.6297795e-05 1.9413483e-07
4.3883356e-06 -1.0527968e-06 2.5232016e-06 4.866793e-07 -3.545021e-07 3.7938878e-06 -1.7500934e-05 -9.2942365e-08
-1.1585598e-05 6.0850918e-05 -3.475217e-05 -8.549244e-06 -8.054674e-05 -3.604853e-05 9.417085e-06 -0.00015394983
-1.4907852e-06 -8.773271e-07 -2.7593271e-06 -5.799247e-07 3.3897973e-06 -2.8710956e-06 -2.7248857e-06 9.315652e-06
1.1734758e-06 -3.9568704e-06 9.068336e-06 -4.80346e-06 8.8299e-06 8.760698e-06 1.2398727e-06 -1.9301585e-06
2.3845082e-06 3.188376e-05 -6.5967124e-06 -6.1129413e-06 -3.204243e-05 -8.110578e-06 -8.6522225e-05 -2.8834793e-07
-1.8012578e-07 4.7731953e-07 -8.83758e-07 3.2119146e-07 1.3706102e-06 -6.206086e-07 -9.237811e-07 -2.286857e-06
4.3095183e-06 9.808333e-06 1.0172568e-05 -4.565177e-07 8.714384e-06 1.0244559e-05 -0.00012998744 4.673043e-06
-9.449148e-07 -2.4108492e-06 -8.0141035e-07 -1.5600012e-06 2.7516146e-06 -5.57032e-07 1.7695615e-05 8.513235e-06
00000000: 53f0 14b6 d1ea fe36 58dd cd35 c5ed 4c36
00000010: 81c9 b3b6 fdfe e035 d98e a8b7 c508 cb34
00000020: 7ecb 4ab6 7c14 8735 ac4c 1036 86c1 f4b5
00000030: eca4 7b36 ffb2 fa35 b886 a135 5c7e 17b5
00000040: d444 24b7 0c77 83b9 e324 f0b8 193e 41b9
00000050: 27e3 8e3a 3749 dcb8 a6b2 8fb9 34df d73a
00000060: 9091 17b5 4280 5f37 93a8 aab6 d6d2 8b36
00000070: 5313 dbb7 d005 a4b6 2b2a f6b7 145d ef34
00000080: c892 8434 b246 64b5 b802 d136 9fc4 d4b6
00000090: 3a88 0237 fe47 d436 6d11 cd35 1628 aa36
000000a0: 270d 87b5 dcdc 29b6 e5a2 8235 56df 76b5
000000b0: 101b 3336 026b 7b35 caed bc33 78f4 6d36
000000c0: 25ca 2ab5 6f06 28b7 d920 8336 f984 a336
000000d0: 9e96 26b7 0a89 8236 2783 9d34 bb61 2cb5
000000e0: bb83 ecb5 3904 7235 4ff5 dc35 86dc 57b6
000000f0: 8b39 7a36 c49b e835 b26c ec36 7ef5 21b5
00000100: 9f1e 23b5 ca49 3635 4bd7 0ab6 a4c6 d436
00000110: 48db d0b6 cdf2 1db6 b4f5 7db7 5d11 f1b6
00000120: 1920 88b6 0490 f3b4 3bde e635 5c0a 2fb6
00000130: 48d0 1b36 de54 6c35 ccce 3f37 8a11 d736
00000140: 9bda 0b35 ef28 0634 289a a836 4741 38b7
00000150: aa3e 7737 7f51 9e36 b7ae a1b4 f143 89b5
00000160: a03b abb4 4383 70b6 ddc4 d536 0c50 70b6
00000170: bce2 4b37 1214 bf36 afba 8437 60b8 c436
00000180: 3d1d 52b6 4c8c 1135 4cb2 0036 5c44 6cb6
00000190: 3dee 0d37 6803 9f35 fc1e 7937 56b4 78b5
000001a0: 2bec 3a35 0533 10b6 9270 b934 6637 04b4
000001b0: 2897 3536 3ed0 36b5 eef4 1735 b90c 0eb5
000001c0: 84d3 0bb6 c345 dcb6 3957 8636 c3f7 94b6
000001d0: e212 c836 b71d 2b36 cdde cb37 60b9 2c37
000001e0: 6a1a 31b6 2888 8a37 bc51 6037 3730 ad38
000001f0: e736 d536 bbe8 33b7 368b e739 e9c1 a9b4
00000200: 4f3f 65b5 cf88 0635 5c09 20b7 f7ca 2936
00000210: 392c a7b7 9472 21b7 5861 03b8 99a2 a935
00000220: 6913 b735 3fcf 2a36 0a79 b836 8d36 46b6
00000230: 7379 32b7 7b77 af36 283b 8bb7 4592 9db5
00000240: 317d 5f33 9b4c 92b6 5091 a6b4 d393 e8b5
00000250: 4a52 a435 2cb6 c0b4 d9bf 86b5 d5a6 e836
00000260: 06e2 6d35 d83a cc36 3bd3 d2b6 e13c 8cb5
00000270: 84ae 54b7 5553 b9b6 8e25 9cb7 9429 8d35
00000280: b282 ec35 b1a4 9035 722b 9537 5a9d 6836
00000290: e354 3436 ccc9 a337 f07a cf36 e43c 16b6
000002a0: fb13 dbb6 f9a6 2f36 ee42 dcb6 e40f 5d37
000002b0: 4716 f336 5cdb c4b6 1ad0 7bb5 08ad c033
000002c0: 9604 4a36 c3c0 0636 0e10 cdb5 b303 a736
000002d0: c66d 90b6 710b 07b6 2363 c435 0c90 f3b6
000002e0: 3427 f9b6 fe16 4437 3129 dcb6 3b5d 2b37
000002f0: 6f06 8936 255e e0b6 763e 18b8 6073 5034
00000300: 843f 9336 d34d 8db5 4654 2936 59a4 0235
00000310: 6652 beb4 7f9a 7e36 f8ce 92b7 9b97 c7b3
00000320: c45f 42b7 2d3a 7f38 dcc2 11b8 b96e 0fb7
00000330: 34eb a8b8 d032 17b8 12fe 1d37 986d 21b9
00000340: fd16 c8b5 7681 6bb5 e12c 39b6 1fac 1bb5
00000350: 467c 6336 0cad 40b6 2edd 36b6 6c4a 1c37
00000360: 5280 9d35 42c5 84b6 3524 1837 682d a1b6
00000370: 2224 1437 e9fa 1237 b469 a635 df87 01b6
00000380: 8a05 2036 edba 0538 5459 ddb6 c41d cdb6
00000390: 4c65 06b8 ab12 08b7 4473 b5b8 3dce 9ab4
000003a0: 9968 41b4 2621 0035 633b 6db5 3870 ac34
000003b0: cff5 b735 e697 26b5 c1f9 77b5 e777 19b6
000003c0: 7b9a 9036 788e 2437 d9aa 2a37 5117 f5b4
000003d0: ff33 1237 0ce0 2b37 3d4d 08b9 22cd 9c36
000003e0: 0da6 7db5 13ca 21b6 8020 57b5 3c61 d1b5
000003f0: 61a8 3836 f386 15b5 0b71 9437 11d4 0e37

exp_avg_sq f4 [512, 8]
9.424096e-10 7.681101e-10 8.381572e-11 1.5180404e-11 1.3749328e-10 1.3027689e-10 8.428974e-10 3.940022e-12
1.4069778e-09 6.678223e-11 4.10394e-11 1.3515446e-10 6.692558e-11 4.0845896e-11 3.6502676e-11 3.3711593e-12
5.417748e-07 6.4866174e-07 5.232895e-07 3.1657572e-07 3.87602e-06 5.2399855e-07 2.979484e-07 6.3000402e-06
5.1282378e-11 1.5740113e-09 3.0808225e-09 1.9270635e-10 1.2063929e-09 3.1137288e-09 2.808268e-09 5.7254302e-11
1.0244031e-11 1.4594805e-10 3.4790235e-10 3.5726647e-10 2.0393154e-10 3.7067543e-10 1.3514663e-10 4.7501675e-10
1.0196198e-09 1.12204177e-10 2.9302918e-10 8.740127e-12 6.820601e-11 2.9775393e-10 1.0690649e-10 1.311364e-10
5.38667e-11 2.7837226e-09 3.5491174e-09 8.904835e-09 4.931768e-09 3.1400251e-09 1.6321947e-09 5.454938e-11
1.4960537e-09 7.264875e-11 4.5548024e-11 1.6484901e-10 7.6703685e-11 3.9975263e-11 1.5853574e-10 3.903589e-12
4.804211e-09 9.669231e-11 9.098858e-11 1.4572264e-10 2.3358543e-10 9.150473e-11 5.2382143e-10 4.6143828e-10
2.5437195e-09 1.2035918e-10 7.8486334e-10 3.3188888e-10 6.445291e-11 7.9082446e-10 5.975916e-10 3.1501612e-10
8.996529e-11 3.722801e-10 1.8680388e-09 9.656119e-10 4.1040657e-10 1.8881494e-09 2.3039902e-10 4.55978e-11
6.3619305e-12 4.752231e-10 1.2018454e-10 4.135839e-10 7.472772e-10 1.2836011e-10 4.5452273e-10 5.8056526e-10
1.7022971e-09 1.873092e-10 5.651561e-10 1.0662747e-10 1.6024367e-10 5.778401e-10 6.9888495e-10 1.6782395e-11
3.973237e-09 2.635735e-10 8.2059404e-10 3.7350503e-10 1.3487585e-10 8.3654383e-10 1.1152697e-10 3.0788014e-10
1.0363421e-10 7.43786e-10 2.2779385e-09 3.423596e-10 3.968362e-10 2.3022666e-09 1.9158926e-09 3.795585e-10
1.748492e-08 2.5981572e-09 2.056448e-07 1.7752518e-08 2.117395e-08 1.9839534e-07 2.6327012e-07 3.2640337e-09
5.1039346e-11 4.1829137e-10 3.1105607e-09 2.208714e-10 1.6331873e-09 3.2280658e-09 3.2182101e-09 7.716378e-11
2.6741611e-09 9.025636e-11 1.050434e-09 2.0935963e-11 8.5011725e-10 1.0966676e-09 8.49123e-10 2.8609146e-11
2.8143586e-11 3.0055913e-10 8.0937e-10 9.2497406e-11 2.0617466e-10 8.1172147e-10 3.0767705e-10 4.703803e-10
4.9126205e-09 4.4461645e-10 1.2427338e-10 1.8018534e-10 5.863994e-10 1.1331426e-10 5.9752536e-10 2.3623123e-11
1.0673873e-09 5.058306e-10 2.3106644e-08 9.01533e-09 2.3421143e-10 2.398117e-08 3.1465912e-09 3.9409315e-10
1.7075101e-09 9.491569e-10 6.9139006e-10 2.0036747e-08 3.73869e-09 6.858496e-10 1.6339223e-10 7.431837e-12
5.49748e-09 1.2182994e-10 1.1738552e-10 1.8043982e-10 8.135899e-10 1.1549907e-10 6.784132e-11 5.8047084e-10
2.1586215e-09 1.0085105e-09 2.6924638e-10 2.3702416e-09 7.42135e-10 2.7007446e-10 1.9235422e-09 1.2050961e-12
4.589643e-09 5.7401917e-11 1.0003115e-09 4.7144166e-10 2.0716949e-11 1.0234416e-09 8.0104506e-10 5.430128e-10
4.825939e-09 2.8582296e-08 1.3237523e-08 1.0103323e-08 1.05696635e-07 1.4032463e-08 3.9103885e-09 1.6811947e-07
4.0434567e-09 3.3506062e-10 9.453606e-10 3.795752e-10 7.0069395e-10 9.261321e-10 4.5698407e-11 5.423581e-10
2.2440592e-10 1.4382766e-09 4.414704e-09 1.6577888e-09 6.293426e-10 4.523765e-09 9.750967e-10 1.7954294e-10
1.0240209e-07 7.0106076e-09 2.3029276e-09 1.209001e-09 1.677277e-08 2.311979e-09 1.3562941e-08 2.1813456e-11
3.5998223e-12 5.0557245e-12 3.5472955e-12 4.070163e-11 1.4241481e-11 3.3366309e-12 3.2295755e-12 6.784319e-11
6.222334e-09 1.1126082e-08 8.675826e-08 3.5765768e-10 3.141174e-09 8.629038e-08 7.732847e-08 4.0453354e-08
6.211008e-09 5.185238e-10 4.9586866e-11 2.743049e-11 1.2578322e-10 4.938733e-11 4.303918e-10 8.4122026e-10
00000000: 1786 8130 f122 5330 0e50 b82e 3b87 852d
00000010: eb2c 172f af3d 0f2f a2b1 6730 90a0 8a2c
00000020: a15f c130 0edb 922e 427e 342e 999a 142f
00000030: c12b 932e 64a4 332e 5c8a 202e 6839 6d2c
00000040: 7b6e 1135 b21f 2e35 2e78 0c35 d6f5 a934
00000050: c20e 8236 e8a8 0c35 b7f5 9f34 ef64 d336
00000060: d38a 612e 9954 d830 67b6 5331 04e2 532f
00000070: 2dce a530 4cf9 5531 93fb 4031 9dce 7b2e
00000080: 0437 342d b978 202f e742 bf2f c968 c42f
00000090: a039 602f eec7 cb2f 6598 142f 5592 0230
000000a0: af22 8c30 56bd f62e 3118 a12f 08c2 192d
000000b0: 92fc 952e 24b1 a32f 0117 eb2e 9d2f 102f
000000c0: 83e8 6c2e c44b 3f31 bce4 7331 e1fb 1832
000000d0: 4a74 a931 e8c7 5731 bf53 e030 24e9 6f2e
000000e0: b69d cd30 9cc1 9f2e 8452 482e df40 352f
000000f0: 56ac a82e 25d0 2f2e d84f 2e2f 6758 892c
00000100: 4912 a531 eea0 d42e 0416 c82e 4739 202f
00000110: 3a6a 802f 9538 c92e a8fc 0f30 aaad fd2f
00000120: 96cd 2e31 1956 042f d9bd 5730 3575 b62f
00000130: c3bb 8d2e 5361 5930 c543 2430 942e ad2f
00000140: f5d5 c52e c4a9 cc2f e35e 0031 73b6 8430
00000150: 979f e12f adc0 0131 8f53 7d2f 8f8a 482e
00000160: 2dd7 df2c daa0 0230 f124 042f c25e e32f
00000170: f568 4d30 2922 0d2f 63e0 f92f a695 1f30
00000180: 41f6 e930 daf2 4d2f 5359 1b30 ee79 ea2e
00000190: 9530 302f e2d5 1e30 a81b 4030 989e 932d
000001a0: f684 8831 ace6 902f 2c90 6130 2956 cd2f
000001b0: 2d4c 142f 8af2 6530 1a40 f52e 4742 a92f
000001c0: e0e4 e32e 4973 4c30 eb89 1c31 d536 bc2f
000001d0: bb29 da2f e735 1e31 bda8 0331 1caa d02f
000001e0: bf31 9632 448b 3231 36cf 5c34 337e 9832
000001f0: 02e2 b532 7f06 5534 9257 8d34 7d4d 6031
00000200: 3279 602e 47f5 e52f 90c1 5531 c6d9 722f
00000210: ab76 e030 bcd4 5d31 5a27 5d31 59af a92e
00000220: 57c4 3731 d079 c62e dc5e 9030 9927 b82d
00000230: afad 6930 90b9 9630 b867 6930 12a6 fb2d
00000240: b98d f72d f03b a52f 5a7a 5e30 6967 cb2e
00000250: 02b1 622f d21f 5f30 b225 a92f 124c 0130
00000260: decb a831 346e f42f d9a3 082f aa1d 462f
00000270: 3030 2130 422e f92e 1c3f 2430 8bca cf2d
00000280: 5ab3 9230 aa0a 0b30 0c7c c632 d7e1 1a32
00000290: 54c2 802f 27ff cd32 6b3b 5831 aea7 d82f
000002a0: acad ea30 7d73 8230 400c 3e30 461d ac32
000002b0: dd75 8031 6086 3c30 d3a6 332f 05be 022d
000002c0: 58e4 bc31 14f4 052f 1611 012f 4b65 462f
000002d0: 4da3 5f30 32fc fd2e 452f 952e 018f 1f30
000002e0: df56 1431 cf9b 8a30 0f05 942f bbe1 2231
000002f0: 1cff 4b30 9a79 942f 502f 0431 2a9a a92b
00000300: edb2 9d31 d074 7c2e 557b 8930 c296 0130
00000310: 6c3a b62d 26a9 8c30 8930 5c30 2143 1530
00000320: 69d1 a531 2285 f532 3e6b 6332 e292 2d32
00000330: 57fb e233 6d13 7132 245c 8631 5484 3434
00000340: 9fee 8a31 9733 b82f ebed 8130 76ac d02f
00000350: f49a 4030 c192 7e30 d5fb 482e 0f15 1530
00000360: a7bc 762f dcac c530 26b0 9731 42d8 e330
00000370: 0cfe 2c30 756f 9b31 2a04 8630 d868 452f
00000380: 25e8 db33 f5e1 f031 8841 1e31 f129 a630
00000390: b613 9032 c4e0 1e31 7202 6932 89df bf2d
000003a0: a250 7d2c ebe1 b12c 659e 792c f601 332e
000003b0: ee89 7a2d 66cb 6a2c dc42 632c 5230 952e
000003c0: 3bcc d531 0725 3f32 dc4f ba33 d89f c42f
000003d0: 1edc 5731 a34e b933 c70f a633 efbe 2d33
000003e0: 9b68 d531 de87 0e30 d915 5a2e f947 f12d
000003f0: d44c 0a2f 3135 592e 439c ec2f 9d3b 6730

exp_avg f4 [512]
-1.1041484e-05 5.665199e-06 0.00052148075 -1.144994e-05 -3.121222e-07 6.3072293e-06 3.5392115e-06 5.7718958e-06
-4.174726e-06 1.3382017e-06 1.9816543e-05 4.4894705e-06 1.5176926e-05 2.5012926e-06 1.7228258e-05 2.6841066e-05
7.4706236e-08 9.32751e-06 1.763356e-06 5.7219977e-06 3.3049748e-06 9.967338e-06 1.7045072e-06 1.27645e-05
4.294125e-07 4.0482384e-05 4.8906224e-07 1.4044547e-05 1.3149627e-05 1.9382883e-06 2.86754e-06 3.5197338e-06
1.6104214e-05 1.1659959e-05 2.2154948e-06 4.2284664e-06 5.7418683e-06 -2.0584479e-05 1.230846e-05 -2.186762e-05
1.8001998e-07 -2.6115522e-05 -6.8308177e-06 2.5576924e-06 -1.1801953e-06 3.820848e-05 -4.8722754e-06 1.510845e-06
1.7480746e-05 6.1988735e-06 2.9270843e-06 4.147975e-06 2.974606e-05 2.0492613e-05 8.404443e-05 1.2717404e-05
-3.0386534e-06 1.6481007e-06 -3.524729e-05 -6.444047e-06 -1.1950287e-05 -1.520819e-05 -4.3631306e-07 -2.3339028e-06
-3.8326166e-06 7.052988e-06 1.863108e-05 1.6662832e-05 2.4647397e-06 -1.5971276e-06 4.89209e-05 4.3648283e-06
8.665131e-06 5.498855e-07 -3.9643492e-08 3.1939787e-06 -6.1637434e-06 6.038784e-07 0.0014423995 -4.361256e-07
8.406427e-06 -1.5520376e-06 0.0020639393 7.2651155e-06 4.970701e-06 -2.2450398e-05 -3.2466443e-05 3.390851e-05
1.5356945e-05 3.772398e-06 -2.2970019e-06 -4.9075848e-06 -5.821477e-07 3.0257113e-06 5.2269734e-06 2.7413655e-05
-7.7718105e-05 -2.016098e-06 5.3269155e-06 3.5664558e-05 4.236035e-06 3.3788053e-06 -3.0995016e-06 4.645121e-06
5.241365e-06 -1.7349827e-05 2.2968088e-05 3.7338452e-06 -1.0398845e-06 -6.319661e-05 -9.915764e-06 1.581972e-05
-5.453131e-05 -5.265261e-06 -6.359705e-05 2.8698769e-06 -2.4319434e-05 4.6242208e-06 4.06419e-06 8.187198e-07
-9.3497715e-07 2.7363172e-05 2.35308e-06 1.0213542e-05 1.466056e-05 9.164191e-07 3.2487533e-05 1.4440121e-05
4.4229055e-06 -1.7680286e-06 5.7133966e-05 3.6114952e-06 -6.249251e-06 2.1767802e-08 1.994536e-05 2.570169e-06
-5.7405716e-05 -2.4555773e-05 1.5151916e-06 -4.353451e-06 5.104619e-07 -4.152023e-05 1.9231138e-05 -2.7546312e-07
2.5888114e-06 7.7167215e-06 -1.1869707e-06 -3.0891492e-06 8.748535e-06 -9.65497e-07 4.948072e-06 -3.517638e-06
-2.7624365e-06 4.072618e-06 -3.8597423e-06 -1.51896e-05 0.002163493 9.235071e-07 -7.443412e-08 4.294947e-06
-3.7689879e-06 3.668377e-08 4.1310627e-06 5.245382e-06 -4.782848e-05 1.326127e-06 -2.4331337e-06 -1.0341243e-05
9.863083e-05 7.188411e-05 -2.5947662e-05 0.002030379 -2.8381994e-06 1.685213e-05 2.7754215e-06 5.01529e-07
-1.407182e-06 1.4348738e-06 -1.5530429e-06 1.1859329e-06 -2.6721048e-06 -2.1045224e-05 -1.4091125e-05 -2.8268103e-06
2.2816995e-07 5.152126e-06 -3.5258088e-06 2.6306197e-06 1.4892078e-05 7.9565405e-07 -2.5343917e-07 -2.6381122e-06
3.0772633e-06 3.456744e-06 -4.852184e-07 -7.887113e-07 -4.3082346e-07 5.625019e-07 2.4702647e-06 1.6614345e-06
3.2062692e-07 5.9017248e-06 1.952429e-05 -1.5882291e-05 -6.7095825e-05 -3.6643835e-06 -6.2513263e-06 -1.6038165e-06
8.6108785e-06 6.6227667e-06 -1.6161322e-06 0.0044648442 1.3978898e-05 1.1472794e-05 2.4864756e-05 3.751759e-06
-1.268388e-05 -2.1893875e-06 -9.405769e-05 5.1090254e-05 -2.729317e-07 -1.1732143e-06 2.0700036e-06 4.2662975e-07
-2.6599193e-07 -1.4463161e-05 -3.0714966e-07 1.6998583e-05 1.4622436e-06 -4.0328146e-07 5.1553316e-06 -2.3659547e-06
1.1977906e-07 -3.2536052e-06 9.0187195e-06 8.21528e-07 6.406342e-06 3.2482724e-06 1.5811382e-05 -6.7263636e-06
-2.0602092e-05 -1.1204514e-05 4.5756383e-06 2.0581325e-05 -1.9932072e-06 -2.8928296e-06 5.419204e-06 -2.0944548e-05
-1.0984697e-06 -3.1614925e-06 6.242017e-07 -5.908054e-07 -6.1668316e-06 4.304716e-06 2.0022044e-06 -4.6409687e-07
00000000: d03e 39b7 b017 be36 fbb3 083a 1e19 40b7
00000010: c091 a7b4 b0a2 d336 3183 6d36 35ac c136
00000020: a014 8cb6 439c b335 b43b a637 42a4 9636
00000030: 67a0 7e37 e1db 2736 6785 9037 c028 e137
00000040: 306e a033 5a7d 1c37 73ac ec35 96ff bf36
00000050: 09cb 5d36 6439 2737 6cc6 e435 1c27 5637
00000060: 018a e634 a1cb 2938 1a48 0335 dfa0 6b37
00000070: 389d 5c37 8a13 0236 f66f 4036 9134 6c36
00000080: 8917 8737 249f 4337 e9ad 1436 40e2 8d36
00000090: 46aa c036 d5ac acb7 6f80 4e37 5b70 b7b7
000000a0: 844b 4134 a812 dbb7 4734 e5b6 d2a4 2b36
000000b0: 3467 9eb5 0b42 2038 877c a3b6 3dc8 ca35
000000c0: 9ea3 9237 ebff cf36 ed6e 4436 d52e 8b36
000000d0: 2d87 f937 8de7 ab37 0341 b038 d65c 5537
000000e0: abeb 4bb6 4f34 dd35 7dd6 13b8 f139 d8b6
000000f0: 187e 48b7 ae26 7fb7 693e eab4 25a0 1cb6
00000100: ed99 80b6 b5a8 ec36 f149 9c37 29c7 8b37
00000110: e867 2536 e35c d6b5 6b30 4d38 9775 9236
00000120: 7460 1137 d89b 1335 7b44 2ab3 2358 5636
00000130: 27d2 ceb6 351a 2235 e50e bd3a a524 eab4
00000140: 5409 0d37 9b4f d0b5 2843 073b dec6 f336
00000150: ffc9 a636 dd53 bcb7 942c 08b8 fc38 0e38
00000160: cad2 8037 4e29 7d36 3126 1ab6 d5ab a4b6
00000170: e344 1cb5 530d 4b36 5c63 af36 60f6 e537
00000180: 97fc a2b8 4d4c 07b6 dbbd b236 8796 1538
00000190: 4323 8e36 6fbf 6236 0801 50b6 49dd 9b36
000001a0: fcde af36 788a 91b7 98ab c037 f992 7a36
000001b0: 2992 8bb5 6c88 84b8 e25b 26b7 97b4 8437
000001c0: 8cb8 64b8 3fac b0b6 685f 85b8 1c98 4036
000001d0: 9601 ccb7 c129 9b36 205f 8836 ffc5 5b35
000001e0: 24fb 7ab5 f789 e537 9be9 1d36 d45a 2b37
000001f0: a0f6 7537 d7ff 7535 3943 0838 d943 7237
00000200: 7868 9436 004d edb5 21a3 6f38 045d 7236
00000210: a8b0 d1b6 e7fb ba32 5650 a737 2b7b 2c36
00000220: ebc6 70b8 1ffd cdb7 965d cb35 dc13 92b6
00000230: ad06 0935 0226 2eb8 8e52 a137 5de3 93b4
00000240: 71bb 2d36 1177 0137 0150 9fb5 2e4f 4fb6
00000250: acc6 1237 3996 81b5 9d07 a636 9010 6cb6
00000260: 4c62 39b6 86a7 8836 ef82 81b6 d6d6 7eb7
00000270: 64c9 0d3b ede6 7735 97d8 9fb3 501d 9036
00000280: b8ee 7cb6 3b8e 1d33 8f9d 8a36 7d01 b036
00000290: 709b 48b8 60fd b135 eb48 23b6 4d7f 2db7
000002a0: 06d8 ce38 7dc0 9638 2eaa d9b7 1b10 053b
000002b0: e577 3eb6 ac5d 8d37 6141 3a36 cfa0 0635
000002c0: 68de bcb5 e395 c035 2672 d0b5 582c 9f35
000002d0: 6952 33b6 468a b0b7 ec68 6cb7 3bb4 3db6
000002e0: e1fe 7434 6de0 ac36 ef9c 6cb6 b489 3036
000002f0: fdd8 7937 ee94 5535 6a10 88b4 6c0a 31b6
00000300: fb82 4e36 69fa 6736 f43f 02b5 d4b7 53b5
00000310: ed4b e7b4 d6fe 1635 d3c6 2536 74fe de35
00000320: a122 ac34 6e07 c636 18c8 a337 f63a 85b7
00000330: ccb5 8cb8 a1e9 75b6 7cc2 d1b6 b742 d7b5
00000340: 7177 1037 2239 de36 e1e9 d8b5 d44d 923b
00000350: e986 6a37 467b 4037 a894 d037 bbc6 7b36
00000360: dacc 54b7 64ed 12b6 d640 c5b8 be49 5638
00000370: 7287 92b4 5677 9db5 64ea 0a36 8c0b e534
00000380: a7cd 8eb4 cea6 72b7 54e6 a4b4 2e98 8e37
00000390: 4f42 c435 9582 d8b4 f6fb ac36 cbc6 1eb6
000003a0: 9e9c 0034 8358 5ab6 1b4f 1737 f986 5c35
000003b0: 0ff6 d636 e5fc 5936 afa2 8437 06b3 e1b6
000003c0: a8d2 acb7 05fb 3bb7 6f88 9936 0fa6 ac37
000003d0: 0ac3 05b6 6f22 42b6 9cd6 b536 13b2 afb7
000003e0: 226f 93b5 072a 54b6 d08e 2735 d797 1eb5
000003f0: aeec ceb6 3b71 9036 9c5d 0636 fd28 f9b4

exp_avg_sq f4 [512]
1.3977439e-10 1.1832181e-10 2.7151666e-06 2.4737514e-09 5.2648313e-10 7.1657555e-11 3.550507e-10 1.3721917e-10
5.6609184e-10 9.998696e-11 9.506909e-10 7.868829e-10 3.1038958e-10 1.6849741e-10 7.398892e-10 1.0080202e-09
2.4060527e-09 2.7126565e-10 7.4379565e-11 7.8543455e-10 3.558771e-10 4.0810555e-09 7.4734163e-10 1.7083134e-09
2.3366614e-11 1.0519084e-07 1.3401709e-10 7.962645e-10 1.4966622e-08 2.0205235e-11 3.5476506e-09 9.783785e-11
6.0396194e-10 2.0650413e-08 5.519924e-11 7.9131574e-10 3.6367718e-11 1.6132621e-09 1.0231972e-09 1.2786943e-09
4.2571804e-11 1.4704266e-08 9.050425e-10 9.33621e-11 7.416564e-10 2.5281615e-08 1.456825e-10 4.8462456e-10
5.8569545e-09 3.930376e-10 1.8916673e-09 2.841495e-10 3.068943e-08 3.5459184e-09 3.3964528e-07 5.186741e-10
5.0553537e-11 1.9152258e-10 6.5199073e-09 7.8337786e-10 4.3564796e-09 6.899329e-09 5.9012006e-10 1.2640559e-08
1.5217674e-08 1.1175467e-09 4.7478186e-09 9.875913e-09 1.7646924e-10 6.447486e-11 9.057856e-09 4.110804e-10
1.0223682e-08 4.4168208e-10 5.089304e-10 2.975599e-10 3.2152322e-10 9.545935e-10 0.00021344262 4.2555162e-10
2.589158e-10 1.4561763e-10 0.00018522741 2.9911182e-10 1.1898587e-09 3.9739274e-09 8.632507e-09 1.3369223e-08
4.919123e-10 1.1692104e-09 1.1384541e-09 1.2519599e-09 2.2815987e-11 8.2606394e-11 4.2022424e-10 5.116036e-08
1.6165085e-07 6.7141532e-09 2.2943644e-10 1.1099558e-08 3.2586145e-10 3.5783124e-10 1.3758891e-10 4.725302e-10
6.9224687e-10 6.441807e-10 8.412713e-09 8.787056e-10 1.3523419e-08 8.8428145e-08 1.7803924e-07 1.0135247e-09
3.1158376e-07 2.2652673e-08 5.4701896e-08 5.983692e-10 3.3949867e-08 4.621466e-10 6.997044e-10 6.78534e-11
2.6984261e-09 8.29721e-09 3.1597313e-08 2.1755643e-10 6.286321e-09 1.9367519e-10 1.48311665e-08 1.4684979e-09
3.4262956e-10 3.928325e-11 5.067911e-08 1.4043222e-10 2.4616418e-09 3.7389453e-10 4.3323354e-08 1.3096607e-10
3.110332e-08 1.2865465e-08 3.0163535e-11 2.8849968e-08 1.2980901e-10 4.1737978e-09 1.3611008e-08 2.6838877e-11
7.4891954e-11 5.4287375e-10 1.8984704e-10 2.0406622e-10 7.676467e-10 7.4909373e-10 1.3864819e-10 7.584378e-10
6.966639e-10 2.594136e-09 2.6632402e-10 9.724487e-08 0.00021210995 4.0980344e-11 6.145532e-10 1.8265456e-10
1.3523826e-08 2.4144162e-10 1.1500686e-10 4.2843094e-09 3.750666e-09 5.4533055e-11 5.7190305e-11 1.339848e-08
9.17327e-08 4.3694317e-07 3.084337e-08 0.00034474573 1.4701428e-10 6.128013e-10 1.1371182e-09 1.986327e-11
5.936526e-10 2.2000293e-09 1.0460314e-10 3.0939102e-11 6.004132e-11 5.1893223e-10 9.414196e-09 9.1749386e-10
6.695349e-11 4.6792803e-10 1.5695157e-09 1.9091291e-10 1.5885913e-08 7.616572e-10 8.194446e-10 1.1608344e-09
2.6230604e-10 4.2548173e-10 1.4916899e-09 8.968274e-11 4.4020607e-10 1.3626758e-10 2.997163e-10 4.700202e-11
1.8666466e-10 1.1728432e-09 1.0488377e-09 1.7608051e-09 2.1560382e-08 2.0156097e-08 9.211888e-11 6.1202994e-11
2.1370978e-09 2.555976e-10 7.8486606e-11 0.00027128204 6.5140213e-09 3.0767627e-08 7.634692e-09 1.1787096e-09
1.9314443e-08 3.1118877e-10 7.625118e-08 4.1714316e-09 3.457185e-10 1.0467682e-10 1.5786202e-10 5.000902e-10
5.450579e-11 1.999351e-08 3.041888e-11 6.204043e-09 1.1848289e-10 1.3157357e-10 4.5217108e-10 1.2351171e-09
2.743005e-09 7.164036e-10 1.1429404e-08 5.9459665e-10 1.4105851e-10 9.891784e-10 1.5722955e-08 2.453128e-10
1.6879075e-07 5.491345e-10 2.3953518e-08 3.2500044e-08 7.682878e-11 1.7774508e-10 1.6571141e-09 7.528018e-10
1.3977508e-10 3.729798e-10 1.6650492e-10 6.3430476e-11 1.029981e-09 1.6743061e-10 1.2516238e-10 3.9604146e-11
00000000: feae 192f a118 022f 3536 3636 b2fe 2931
00000010: f5b7 1030 9e93 9d2e f230 c32f c3df 162f
00000020: 2c9b 1b30 a8df db2e 76a9 8230 f64b 5830
00000030: 73a3 aa2f ce43 392f 1361 4b30 8f8a 8a30
00000040: ba57 2531 3f21 952f f98f a32e 0be6 5730
00000050: 40a5 c32f 5839 8c31 7e6d 4d30 efc9 ea30
00000060: f088 cd2d 47e5 e133 755a 132f 22e0 5a30
00000070: f38f 8032 25ba b12d eeca 7331 d025 d72e
00000080: 0b04 2630 bd62 b132 d2c4 722e e583 5930
00000090: 69f2 1f2e 9db9 dd30 8da0 8c30 0ebe af30
000000a0: 973b 3b2e 0c9e 7c32 b4c6 7830 314e cd2e
000000b0: 6edd 4b30 dc2a d932 fa2d 202f 6c36 0530
000000c0: 513e c931 2013 d82f 90fe 0131 7d36 9c2f
000000d0: 63cf 0333 75ac 7331 7e58 b634 7292 0e30
000000e0: 3956 5e2e d094 522f b605 e031 5155 5730
000000f0: 00b0 9531 240f ed31 0236 2230 c429 5932
00000100: 05b8 8232 2e98 9930 4122 a331 baaa 2932
00000110: ad07 422f 1fc8 8d2e df9c 1b32 6cfe e12f
00000120: 3ba4 2f32 3ad1 f22f cbe4 0b30 d595 a32f
00000130: 5fc2 b02f c632 8330 91cf 5f39 11f3 e92f
00000140: 2957 8e2f b81b 202f 9b39 4239 3f70 a42f
00000150: 6e88 a330 098b 8831 2b4e 1432 77ae 6532
00000160: 4037 0730 efb1 a030 cb77 9c30 6c11 ac30
00000170: 09b1 c82d 44a7 b52e 4e05 e72f 69bb 5b33
00000180: 3f92 2d34 51b2 e631 9e44 7c2f 5fb0 3e32
00000190: ec24 b32f 45b8 c42f d647 172f 5be3 0130
000001a0: 8b48 3e30 3012 3130 8187 1032 6989 7130
000001b0: a054 6832 e3e5 bd33 0e2b 3f34 3b4c 8b30
000001c0: bf47 a734 c195 c232 5ff1 6a33 7d7a 2430
000001d0: 46d0 1133 5a11 fe2f 5255 4030 1236 952e
000001e0: 376f 3931 848b 0e32 9db5 0733 b134 6f2f
000001f0: 10ff d731 b8f2 542f 29cc 7e32 2dd4 c930
00000200: d35c bc2f 02c5 2c2e 45aa 5933 2868 1a2f
00000210: a929 2931 fa8c cd2f 8812 3a33 acff 0f2f
00000220: 7696 0533 ea06 5d32 1fa9 042e c0d1 f732
00000230: fdb9 0e2f 1d69 8f31 d9d5 6932 c713 ec2d
00000240: 6cb0 a42e 5839 1530 31bd 502f 895f 602f
00000250: 5602 5330 c9e8 4d30 ff71 182f 517a 5030
00000260: 5d7f 3f30 8644 3231 c669 922f efd4 d033
00000270: d569 5e39 c43b 342e 56ed 2830 b0d4 482f
00000280: 6a56 6832 e3bb 842f 1be7 fc2e 2f35 9331
00000290: 35df 8031 c3d6 6f2e 8f86 7b2e 232f 6632
000002a0: 96fe c433 0395 ea34 a578 0433 fdbe b439
000002b0: d7a4 212f 0f72 2830 ca48 9c30 1cb8 ae2d
000002c0: 972e 2330 532f 1731 5506 e62e 5512 082e
000002d0: 4208 842e 9ca4 0e30 12bc 2132 e432 7c30
000002e0: 773b 932e 829f 0030 6db6 d730 35e9 512f
000002f0: 7e75 8832 dc5c 5130 4a3f 6130 3b8b 9f30
00000300: 4b34 902f 3be9 e92f 2c04 cd30 e536 c52e
00000310: 7f01 f22f ead3 152f 52c5 a42f 92b7 4e2e
00000320: 6e3d 4d2f c031 a130 b226 9030 d200 f230
00000330: c833 b932 ba23 ad32 5292 ca2e 3996 862e
00000340: 39dc 1231 2a84 8c2f 0898 ac2e dc3a 8e39
00000350: f0d1 df31 5d25 0433 bb29 0332 2800 a230
00000360: e9e8 a532 ed13 ab2f 88bf a333 4d54 8f31
00000370: 8e0f be2f d02f e62e 3592 2d2f b876 0930
00000380: 10b8 6f2e 32be ab32 9dc8 052e 572b d531
00000390: f845 022f abaa 102f 6c95 f82f d2c0 a930
000003a0: 747f 3c31 6cec 4430 0d5b 4432 0571 2330
000003b0: 7118 1b2f 9ff3 8730 250f 8732 b5dc 862f
000003c0: d93c 3534 e8f1 1630 58c2 cd32 2d96 0b33
000003d0: c2f2 a82e cb6e 432f 85c0 e330 b8ed 4e30
000003e0: 30af 192f 3e0c cd2f f812 372f 2f7c 8b2e
000003f0: 3c8f 8d30 8717 382f 149e 092f 4e2e 2e2e
