GAIL_simulator_py/src/domain/player/models/v1/weights/cluster_0/termination_25_model_00.pth (torch, 73574 bytes, 12 tensors)

network.0.weight f4 [512, 8]
-1.0671473 -0.120767765 -0.13025346 -0.12017592 -0.017173056 0.010890742 -0.041468747 -0.030007575
0.010533464 -0.1583833 0.15185554 -0.3111773 0.21401359 -0.10455396 -0.35703325 -0.5142113
-0.34811902 -0.147996 0.007045334 -0.36463043 -0.014371216 -0.19133496 0.060027614 0.02854842
-0.13043392 0.002047979 -0.30915928 0.20041607 0.4943468 0.225686 0.035411492 -0.035364375
-0.60482943 -0.09476066 0.2740436 -0.024566557 0.026753422 -0.48325422 -0.79406255 0.0365786
-0.49917573 -0.017493868 -0.07206853 0.007903508 0.027861957 -0.07048279 -0.48379096 -0.67907226
0.15311792 0.03267561 -0.31062 -0.0041520763 -0.14253661 -0.4121993 -0.25175166 0.1497882
-0.07610591 -0.004202456 0.08148775 -0.0017089469 0.0064135706 -0.09422195 -0.91441554 0.02988634
-0.2235927 0.01783691 -0.044024512 0.1774346 -0.10323337 0.011693165 0.12984283 0.01637237
0.032357953 -0.20200467 -0.1658714 -0.55006564 -0.094473585 0.18358226 0.10618986 0.008799865
0.12417173 -0.07518056 -0.292348 -0.29989973 -0.1386737 -0.9268671 0.03188473 0.07900753
0.02553114 0.23594984 0.0056547252 -0.15971634 -0.024375856 0.08322061 -0.27244377 -0.022411566
-0.20561726 -0.15974815 -0.17335829 -0.16186924 0.028103469 -0.56489456 0.14187233 -0.282254
0.036225002 -0.017400175 -0.2625169 -0.021196287 -0.013780667 0.044156194 0.09751266 0.024018703
-0.017287292 0.023148999 0.069467746 0.052788466 -0.049818747 -0.015189313 -0.13872634 0.03721407
-0.020602364 0.011799095 0.1520372 0.16241707 -0.11145696 -0.29901153 -0.84742725 0.008976225
-0.16293377 -0.035919264 -0.35340795 0.020671127 0.10268397 -0.20303479 -0.050397992 -0.0869304
-0.11746293 -0.013739821 0.2635472 0.033736747 -0.008974027 -0.40573496 -0.02473899 0.020569282
-0.10104041 0.44921383 -0.55201226 0.10515072 0.003728247 -0.06382848 -0.05690497 0.011986178
0.03848446 -0.0126449615 -0.37721983 0.0071137124 -0.011300999 0.18529563 0.007623151 0.026959985
0.020805925 -0.01802757 0.014617362 -0.075481646 -0.056820303 0.2623264 -0.25760797 -0.22251722
0.042298857 -0.003477833 -0.28604686 0.052662175 -0.0066882963 0.21859671 0.002902154 -0.01901282
-0.24803111 -0.02681075 -0.3157787 0.02643057 0.010655213 0.331756 -0.820177 0.012331668
0.044655886 -0.055496622 0.4206004 0.0036560607 0.0031380951 -0.4874678 0.0132584395 -0.014476578
-0.03618127 -0.025595477 -0.01935227 0.16801247 -0.012947164 0.22456367 -0.5378576 0.008532865
0.05419002 -0.0050208657 -0.27163884 -0.018627608 -0.0015703605 0.14227967 0.059746236 -0.028603803
-0.008938726 0.05800838 0.13388915 -0.06467291 0.27243024 0.02381623 -0.49201798 0.0015495045
0.01746997 -0.010413778 0.010392981 0.11753951 -0.008750542 0.12328346 -0.2839313 0.07746362
-0.14387019 -0.05840813 -0.22928034 -0.049136337 -0.012491328 0.03657693 0.029316984 0.014786988
-0.30703 0.49674806 -0.21436268 0.15546265 0.15134545 0.096038096 -0.03142319 -0.012605396
-0.3311373 -0.03717864 -0.17448138 0.05470809 0.1823959 -0.2209001 0.0749858 0.029298438
-0.04118943 0.029484255 0.096127324 0.11189285 0.050184883 -0.08911825 -0.8054086 0.040637545
00000000: 4898 88bf 1755 f7bd 2a61 05be cb1e f6bd
00000010: 82ae 8cbc 156f 323c 22db 29bd 72d2 f5bc
00000020: 8d94 2c3c 3b2f 22be 0580 1b3e a252 9fbe
00000030: 6126 5b3e 6320 d6bd 10cd b6be 5aa3 03bf
00000040: a83c b2be 438c 17be 8cdc e63b d7b0 babe
00000050: 4075 6bbc 50ed 43be 84df 753d 60de e93c
00000060: 7890 05be 6337 063b 204a 9ebe df39 4d3e
00000070: 061b fd3e 3b1a 673e a40b 113d 3cda 10bd
00000080: 1ad6 1abf e011 c2bd 714f 8c3e ce3f c9bc
00000090: fe29 db3c 196d f7be af47 4bbf 71d3 153d
000000a0: f693 ffbe 4d4f 8fbc aa98 93bd b77d 013c
000000b0: c23e e43c 4859 90bd 73b3 f7be aed7 2dbf
000000c0: f2ca 1c3e dcd6 053d 9609 9fbe 240e 88bb
000000d0: 1ef5 11be c90b d3be 98e5 80be 1462 193e
000000e0: 6add 9bbd c2b4 89bb 0de3 a63d befe dfba
000000f0: ee28 d23b 70f7 c0bd 2317 6abf 33d4 f43c
00000100: 7cf5 64be b61e 923c 0c53 34bd 6ab1 353e
00000110: 046c d3bd b094 3f3c 85f5 043e 591f 863c
00000120: c689 043d 50da 4ebe 31da 29be 1ad1 0cbf
00000130: 5e7b c1bd fdfc 3b3e 127a d93d 4f2d 103c
00000140: bf4d fe3d 44f8 99bd a3ae 95be 758c 99be
00000150: 7a00 0ebe 2a47 6dbf 9099 023d b3ce a13d
00000160: ae26 d13c d69c 713e 464b b93b ae8c 23be
00000170: e0af c7bc 916f aa3d c07d 8bbe 7698 b7bc
00000180: 558d 52be 0595 23be d684 31be 0dc1 25be
00000190: 3f39 e63c ee9c 10bf fb46 113e 9983 90be
000001a0: ab60 143d d08a 8ebc 9d68 86be d6a3 adbc
000001b0: 4fc8 61bc 20dd 343d b8b4 c73d dfc2 c43c
000001c0: 149e 8dbc f8a2 bd3c 1b45 8e3d b838 583d
000001d0: be0e 4cbd 99dc 78bc 470e 0ebe c86d 183d
000001e0: 4ac6 a8bc fe50 413c a4af 1b3e a950 263e
000001f0: 8c43 e4bd 0a18 99be fef0 58bf 0411 133c
00000200: 1cd8 26be 1420 13bd e3f1 b4be 7f56 a93c
00000210: f94b d23d 5ae8 4fbe 206e 4ebd 9108 b2bd
00000220: 6890 f0bd fc1c 61bc a9ef 863e 8b2f 0a3d
00000230: cc07 13bc 7ebc cfbe 6ca9 cabc e980 a83c
00000240: 46ee cebd 5bff e53e ad50 0dbf 4359 d73d
00000250: 9b55 743b 82b8 82bd 3015 69bd ad61 443c
00000260: e2a1 1d3d d02c 4fbc f522 c1be 251a e93b
00000270: d327 39bc 23be 3d3e a0cb f93b 30db dc3c
00000280: 3071 aa3c 8eae 93bc a97d 6f3c 1f96 9abd
00000290: 68bc 68bd a54f 863e 31e5 83be 8edb 63be
000002a0: 9141 2d3d 5bec 63bb bc74 92be 4bb4 573d
000002b0: 7f29 dbbb d1d7 5f3e 1132 3e3b c6c0 9bbc
000002c0: defb 7dbe 38a2 dbbc bfad a1be ec84 d83c
000002d0: 3493 2e3c ecdb a93e 1ff7 51bf c40a 4a3c
000002e0: 17e9 363d 6d50 63bd f058 d73e 859a 6f3b
000002f0: 80a8 4d3b 6195 f9be ed39 593c 2b2f 6dbc
00000300: d032 14bd 9bad d1bc a788 9ebc 760b 2c3e
00000310: 5720 54bc 05f4 653e 09b1 09bf 6ecd 0b3c
00000320: 5bf6 5d3d 1386 a4bb 3f14 8bbe ed98 98bc
00000330: 8ed4 cdba c3b1 113e 78b8 743d 8652 eabc
00000340: bc73 12bc 329a 6d3d 3d1a 093e 3b73 84bd
00000350: fa7b 8b3e 411a c33c c8e9 fbbe be18 cb3a
00000360: 2f1d 8f3c 8d9e 2abc 5247 2a3c 8eb8 f03d
00000370: 6f5e 0fbc 0a7c fc3d 715f 91be 3fa5 9e3d
00000380: b552 13be 5d3d 6fbd 77c8 6abe 2f43 49bd
00000390: 6da8 4cbc b1d1 153d 2c2a f03c 1f45 723c
000003a0: 0933 9dbe c355 fe3e e481 5bbe 9a31 1f3e
000003b0: 4dfa 1a3e 9faf c43d 9ab5 00bd dd86 4ebc
000003c0: d48a a9be a148 18bd 3fab 32be 9715 603d
000003d0: fec5 3a3e a333 62be 2892 993d 4703 f03c
000003e0: 3fb6 28bd f788 f13c 67de c43d 1428 e53d
000003f0: aa8e 4d3d a183 b6bd 422f 4ebf 8e73 263d

network.0.bias f4 [512]
-0.2353969 -0.4021405 -0.755828 -0.2905073 -0.6342861 -0.21229699 -0.5177564 -0.28748077
-0.10985056 -0.71022123 -0.5140178 -0.061599843 -0.16361971 0.03184158 0.055043317 -0.28796056
-0.22425008 0.095434375 -0.34179223 0.0007917131 -0.17222326 0.00939759 -0.3454711 -0.013175974
-0.03436624 0.022626221 -0.23357086 0.0009872589 0.1075113 -0.32927147 0.12737992 -0.249167
0.06955754 -0.29743254 -0.33816856 -0.51355 0.09301351 -0.41753864 -0.4529951 -0.43094534
-0.16581856 -0.39068392 -0.1371871 -0.2129694 -0.048848074 -0.46691227 -0.19968311 -0.33126098
0.1086112 0.03473626 0.009840109 0.06554955 0.02125673 -0.38218224 -0.22001487 0.06061845
0.035159923 -0.44532642 -0.10445855 -0.39259365 -0.31828755 -0.26742023 -0.38826784 -0.7418166
-0.28228277 -0.33659086 -0.40687945 -0.29320157 -0.06147222 -0.59492004 -0.116733186 0.0027939077
0.101045534 -0.18356074 0.113542676 0.15248197 0.038638733 -0.15885516 -0.22343284 -0.19462577
-0.01855515 -0.10227976 -0.12973315 -0.12612568 -0.05010473 -0.28780195 -0.6190221 -0.011012515
-0.17737067 -0.06314856 -0.059141096 -0.14450169 -0.5732862 -1.1367278 -0.35204157 -0.07594826
0.17418149 -0.7273274 -0.0455085 -0.0133853825 -0.12903205 -0.3596941 0.08863981 -0.23086348
-0.06549881 0.0560879 -0.124293335 -0.007375399 -0.31586558 -0.26875138 -0.5232044 0.019214854
0.11460936 -0.26898018 -0.44050243 -0.8178054 0.014340366 -0.15520838 -0.51405585 0.1088016
-0.16615054 0.06246328 -0.22443952 -0.18998417 -0.4993412 0.057227656 -0.2954783 -0.040908493
-0.97564584 -0.48948354 -0.240635 -0.18120596 -0.58400357 -0.5420214 -0.41301885 -0.011193713
-0.10257852 0.015379358 -0.82200396 -0.0038561816 0.06915016 -0.6474522 -0.0886253 -0.33194497
-0.17086439 -0.2052856 -0.13871671 -0.3603737 -0.549435 0.10123092 -0.07151756 -0.5999363
-0.057903145 -0.54606086 -0.23977065 0.051505886 -0.15355468 -0.48708993 -0.30881152 0.07186689
0.012287558 -0.03690498 -0.55664027 0.106419995 0.08588193 -0.44295138 0.04339453 -1.0339581
-0.5540318 -0.07675697 -0.027283845 0.023843767 -0.28231922 -0.3226984 0.08463541 -0.19115908
-0.09285716 0.009878257 0.07505178 0.106838435 -0.16117267 -0.51330346 -0.38341105 -0.020177692
0.07231445 -0.7675361 -0.38958865 -0.06959933 -0.04745565 -0.025167141 0.039574493 -0.2913936
-0.17758264 -0.63129634 -0.05887988 -0.014003186 -0.039053787 -0.40580317 -0.32277125 0.06059701
-0.04989352 0.12354588 -0.0756729 -0.19226737 0.09740975 0.16409376 -0.17606096 -0.2585675
0.08375405 0.051625825 -0.14971405 -0.2924249 -0.04814654 0.0007406851 0.0052649984 0.042660788
0.03429397 -0.47494116 -0.43613237 -0.1482895 -0.50789386 -0.12695828 -0.6522899 -0.3991964
-0.23605743 -0.21497588 -0.1601804 -0.38770318 -0.74465245 -0.12685771 -0.52136403 -0.37927708
-0.031984385 -0.55574596 0.08346328 0.042709846 0.10298344 -0.7142632 -0.34765574 -0.59972197
-0.4879388 -0.028697884 -0.56505406 -0.014469665 -0.6908193 -0.3462091 0.070814826 0.08429117
-0.18459196 -0.276469 -0.18966182 -0.20309015 -0.4796097 -0.17514935 -0.0790901 -0.066152416
00000000: e30b 71be 5ce5 cdbe f27d 41bf 5fbd 94be
00000010: 9360 22bf 6264 59be af8b 04bf ae30 93be
00000020: 55f9 e0bd 0fd1 35bf ac96 03bf 1e50 7cbd
00000030: ed8b 27be 516c 023d 1a75 613d 916f 93be
00000040: d0a1 65be 1973 c33d 64ff aebe f78a 4f3a
00000050: 4b5b 30be 59f8 193c 97e1 b0be 0ae0 57bc
00000060: 9dc3 0cbd a05a b93c 332d 6fbe e966 813a
00000070: e22e dc3d 4596 a8be e26f 023e a225 7fbe
00000080: 2f74 8e3d 1449 98be 6e24 adbe 0378 03bf
00000090: de7d be3d a0c7 d5be f9ee e7be dea4 dcbe
000000a0: 57cc 29be b907 c8be c67a 0cbe a714 5abe
000000b0: eb14 48bd 200f efbe bb79 4cbe 0a9b a9be
000000c0: 8c6f de3d 9c47 0e3d 6938 213c d83e 863d
000000d0: 9822 ae3c 64ad c3be 944b 61be 0d4b 783d
000000e0: da03 103d d301 e4be 5dee d5bd 0902 c9be
000000f0: 96f6 a2be 4eeb 88be 0bcb c6be b1e7 3dbf
00000100: 5e87 90be a355 acbe 8152 d0be 841e 96be
00000110: 4bca 7bbd ae4c 18bf cf11 efbd fe19 373b
00000120: f6f0 ce3d 59f7 3bbe 1089 e83d 3c24 1c3e
00000130: a643 1e3d edaa 22be 94cb 64be fa4b 47be
00000140: f800 98bc 0d78 d1bd c4d8 04be 1727 01be
00000150: 9e3a 4dbd c75a 93be 3b78 1ebf d66d 34bc
00000160: a8a0 35be 0854 81bd ef3d 72bd 40f8 13be
00000170: e2c2 12bf 4c80 91bf cb3e b4be c38a 9bbd
00000180: a25c 323e 2132 3abf 1f67 3abd 5d4e 5bbc
00000190: fa20 04be d329 b8be ca88 b53d 7a67 6cbe
000001a0: 3d24 86bd 6dbc 653d 818d febd 55ad f1bb
000001b0: 22b9 a1be c899 89be b9f0 05bf 7868 9d3c
000001c0: 50b8 ea3d c5b7 89be 8989 e1be b25b 51bf
000001d0: dbf3 6a3c f2ee 1ebe 2a99 03bf 60d3 de3d
000001e0: 5e23 2abe 7fd9 7f3d 79d3 65be 368b 42be
000001f0: a6a9 ffbe 8c67 6a3d ef48 97be aa8f 27bd
00000200: edc3 79bf 969d fabe 0569 76be 0e8e 39be
00000210: 4281 15bf eac1 0abf 3577 d3be d665 37bc
00000220: b014 d2bd b4f9 7b3c da6e 52bf feb7 7cbb
00000230: 999e 8d3d 6dbf 25bf 2e81 b5bd b1f4 a9be
00000240: 13f7 2ebe 6336 52be c10b 0ebe e782 b8be
00000250: c6a7 0cbf 2852 cf3d cc77 92bd 6d95 19bf
00000260: d92b 6dbd a5ca 0bbf 7086 75be d6f7 523d
00000270: 703d 1dbe da63 f9be 8b1c 9ebe f32e 933d
00000280: c151 493c ad29 17bd fa7f 0ebf baf2 d93d
00000290: dee2 af3d 86ca e2be 76be 313d bd58 84bf
000002a0: 07d5 0dbf c232 9dbd 5f82 dfbc 0154 c33c
000002b0: 258c 90be ba38 a5be 5455 ad3d 35bf 43be
000002c0: e52b bebd 6ad8 213c bfb4 993d 1cce da3d
000002d0: 730a 25be db67 03bf 744e c4be b04b a5bc
000002e0: 9919 943d 3f7d 44bf 2a78 c7be 188a 8ebd
000002f0: db60 42bd 522b cebc dd18 223d 8b31 95be
00000300: 39d8 35be a39c 21bf 072c 71bd 9e6d 65bc
00000310: ddf6 1fbd 6fc5 cfbe 4642 a5be 9234 783d
00000320: 265d 4cbd 9f05 fd3d 65fa 9abd bde1 44be
00000330: c37e c73d 3208 283e 5349 34be f662 84be
00000340: 3e87 ab3d 9a75 533d a44e 19be b7b8 95be
00000350: 4e35 45bd 892a 423a 0286 ac3b 14bd 2e3d
00000360: d577 0c3d 7d2b f3be be4c dfbe 34d9 17be
00000370: 5505 02bf 5a01 02be 79fc 26bf 7863 ccbe
00000380: 0ab9 71be a322 5cbe 5506 24be 0881 c6be
00000390: 8ba1 3ebf fde6 01be 1d78 05bf 9b30 c2be
000003a0: 0f02 03bd 5e45 0ebf ccee aa3d 85f0 2e3d
000003b0: fbe8 d23d f4d9 36bf efff b1be 6187 19bf
000003c0: 1dd3 f9be d317 ebbc 62a7 10bf 2c12 6dbc
000003d0: 89d9 30bf 5242 b1be 5d07 913d d9a0 ac3d
000003e0: ad05 3dbe 588d 8dbe b536 42be ddf6 4fbe
000003f0: 678f f5be 5a5a 33be fef9 a1bd eb7a 87bd

network.3.weight f4 [2, 512]
0.086265326 -0.0446847 0.25638652 -0.03398908 -0.89028054 -0.45366123 0.0032349129 0.55943525
-0.01857033 -0.056139074 -0.011431562 -0.0042172563 -0.040621474 0.027584514 -0.044817053 0.07199243
-0.5649942 -0.012126961 0.12973803 0.040973894 -0.043757793 -0.0036028547 -0.21378282 0.068792924
-0.04100741 0.02402108 0.0041832696 -0.03535325 -0.0057380483 0.121015325 -0.016344953 0.04373209
-0.016298883 -0.050222676 -0.050818097 -0.055571336 -0.042122327 -0.08896827 0.039485816 0.09426528
-0.06936563 0.97523683 -0.00051990314 -0.019813 -0.024670592 24.876553 0.048524484 0.051815655
-0.021152794 -0.026578663 0.032326337 -0.031515423 0.05693039 -0.036921065 -0.050635844 -0.015198769
-0.026652174 -0.016280852 0.041888796 -0.012214723 0.01973687 -0.03458569 -0.0025238232 -0.046481766
0.028818622 -0.30853677 0.13427833 0.10063099 0.014049735 0.06872708 -0.02874686 -0.012629057
-0.030047646 -0.10867704 -0.045168396 -0.011577736 0.025120232 0.049841538 0.034529984 -0.48721948
0.026270824 0.027904907 -0.042420678 -0.018321335 -0.022244269 -0.050259132 26.233423 0.0025843356
-0.02817343 0.057483774 0.020309161 -0.011526659 0.074276686 -0.27309164 -0.039110385 0.0029493587
-0.0074667167 -0.1168768 0.0176238 0.035387527 -0.0002939099 -1.0228412 -0.033502463 0.33309436
0.01837362 -0.022616236 -0.020458907 -0.0017919639 0.17998153 0.16231015 -0.22412562 0.066399224
-0.0073397052 -0.73985445 0.40816486 -0.18675743 0.06549026 0.054971885 4.6111803 -0.02684212
0.008430555 -0.012961701 0.03138271 0.12044216 -0.04498023 -0.051317845 0.041992195 0.035669364
-0.41266084 -0.5265705 -0.038368274 -0.02497216 -0.43941638 -0.0075887577 -0.07397671 0.046047315
-0.011169695 0.037799843 -0.009583281 0.067674465 -0.021153117 16.564102 0.0088777635 -0.081409894
0.061744757 -0.22937274 0.0580172 -0.5469697 25.895039 -0.0055475216 0.00066844956 21.019064
0.048911348 -0.21406877 0.07098375 -0.061089467 0.012925647 -1.5463849 -0.026861664 -0.015100657
0.037612177 0.0024337228 0.042401977 -0.02739628 -0.025291009 -0.6923868 -0.013174473 -0.2121859
33.243275 -0.008084673 0.056710154 0.015680024 0.07210746 -0.03052579 -0.04969322 0.053376038
0.0115264505 -0.0027790058 -0.0564982 -0.0331605 -0.048685923 27.944868 0.09505482 0.011624973
-0.06502995 -0.18886639 0.020497011 -0.049292356 0.045649093 0.03329077 0.03717113 0.2444221
-0.03799697 -0.09127089 -0.018552154 0.0118052345 -0.0153837465 0.042150743 0.38360178 -0.035468973
-0.005196038 -0.01613705 0.012525465 0.028889703 -0.0057673277 -0.036818217 -0.027500378 0.0102553135
0.0029275173 -0.029631143 0.0107062105 0.0041889464 -0.02732789 0.006597486 0.029247796 -0.004864949
-0.041033432 0.6999566 0.119997084 -0.017293734 -0.05500101 0.0428521 0.060464054 -0.00807674
-0.055443652 0.018563995 -0.01676103 -0.040642247 -0.33029196 -0.031570703 -0.07230455 0.015426236
-0.022957027 1.4896165 -0.04003892 -0.043632764 -0.009112718 -0.05253755 0.34121454 0.13854052
0.15745859 -0.004877142 -0.09424352 -0.024074726 -0.28243437 0.049979724 -0.025582964 -0.015612213
-0.030916449 0.055447046 0.02857366 -0.029363653 25.858137 -0.0010852129 0.038816307 0.014528541
00000000: e0ab b03d 4e07 37bd 1845 833e 2238 0bbd
00000010: 6de9 63bf 4946 e8be d500 543b 2637 0f3f
00000020: ce20 98bc 16f2 65bd 724b 3bbc e930 8abb
00000030: b462 26bd ebf8 e13c 1692 37bd c470 933d
00000040: 76a3 10bf 29b0 46bc 0cda 043e 3ed4 273d
00000050: 5f3b 33bd df1d 6cbb e2e9 5abe 4ee3 8c3d
00000060: 63f7 27bd dbc7 c43c cf13 893b 92ce 10bd
00000070: 3d06 bcbb e2d6 f73d dae5 85bc 6c20 333d
00000080: 3c85 85bc 4bb6 4dbd a326 50bd c59e 63bd
00000090: 7688 2cbd ff34 b6bd e1bb 213d 280e c13d
000000a0: 910f 8ebd 1fa9 793f 1c4a 08ba df4e a2bc
000000b0: fb19 cabc 2e03 c741 9cc1 463d a73c 543d
000000c0: a048 adbc 7fbb d9bc 9f68 043d 5116 01bd
000000d0: d72f 693d 8b3a 17bd 8867 4fbd 4204 79bc
000000e0: a955 dabc 6c5f 85bc 9693 2b3d 4320 48bc
000000f0: 37af a13c b9a9 0dbd ba66 25bb aa63 3ebd
00000100: 0815 ec3c 88f8 9dbe 4280 093e 9f17 ce3d
00000110: dc30 663c c9c0 8c3d 897e ebbc 1bea 4ebc
00000120: 7b26 f6bc 1192 debd 7f02 39bd 8bb0 3dbc
00000130: f2c8 cd3c a426 4c3d 506f 0d3d d574 f9be
00000140: e935 d73c d598 e43c 4ec1 2dbd a016 96bc
00000150: 9d39 b6bc 85dc 4dbd 0dde d141 f55d 293b
00000160: f7cb e6bc 1b74 6b3d 665f a63c 50da 3cbc
00000170: 601e 983d abd2 8bbe 3632 20bd 074a 413b
00000180: 5cab f4bb 1b5d efbd ca5f 903c 83f2 103d
00000190: eb17 9ab9 76ec 82bf e139 09bd 588b aa3e
000001a0: 4684 963c af45 b9bc 7099 a7bc 55e0 eaba
000001b0: 144d 383e a234 263e 3081 65be 51fc 873d
000001c0: e981 f0bb 1a67 3dbf fcfa d03e 573d 3fbe
000001d0: c21f 863d 332a 613d ca8e 9340 01e4 dbbc
000001e0: 5020 0a3c 505d 54bc 288b 003d 61aa f63d
000001f0: 313d 38bd a932 52bd 0200 2c3d 0a1a 123d
00000200: 4848 d3be 53cd 06bf 0d28 1dbd 6a92 ccbc
00000210: 2ffb e0be 1dab f8bb 1a81 97bd 1c9c 3c3d
00000220: 1901 37bc 02d4 1a3d 3203 1dbc e998 8a3d
00000230: 4d49 adbc 4883 8441 0a74 113c 3bba a6bd
00000240: 12e8 7c3d b0e0 6abe 72a3 6d3d 3506 0cbf
00000250: 0a29 cf41 fcc7 b5bb e43a 2f3a 0b27 a841
00000260: 4457 483d d834 5bbe ee5f 913d f338 7abd
00000270: 18c6 533c f1ef c5bf fe0c dcbc bf68 77bc
00000280: 3a0f 1a3d 187f 1f3b b2ad 2d3d 2a6e e0bc
00000290: 172f cfbc 4340 31bf bfd9 57bc 4347 59be
000002a0: 1df9 0442 9475 04bc e848 683d 6573 803c
000002b0: 13ad 933d 3911 fabc 1e8b 4bbd d5a0 5a3d
000002c0: 70d9 3c3c fb1f 36bb a86a 67bd 4ed3 07bd
000002d0: e46a 47bd 178f df41 1aac c23d ac76 3e3c
000002e0: 6c2e 85bd 3166 41be 59e9 a73c c8e6 49bd
000002f0: 8bfa 3a3d e75b 083d c140 183d c949 7a3e
00000300: b6a2 1bbd 3bec babd b0fa 97bc be6a 413c
00000310: 1c0c 7cbc 42a6 2c3d 7467 c43e ea47 11bd
00000320: 8743 aabb d931 84bc 9c37 4d3c 19aa ec3c
00000330: dafb bcbb b3ce 16bd 7948 e1bc e705 283c
00000340: 97db 3f3b 03bd f2bc 1a69 2f3c 6e43 893b
00000350: bdde dfbc b92f d83b 1399 ef3c 266a 9fbb
00000360: ac12 28bd 5b30 333f 08c1 f53d 97ab 8dbc
00000370: bd48 61bd af85 2f3d 28a9 773d 4e54 04bc
00000380: e218 63bd 8513 983c 6d4e 89bc 7c78 26bd
00000390: 071c a9be 4850 01bd 6814 94bd 53be 7c3c
000003a0: 6010 bcbc c1ab be3f daff 23bd 45b8 32bd
000003b0: 824d 15bc 9d31 57bd acb3 ae3e 91dd 0d3e
000003c0: d33c 213e 6fd0 9fbb bf02 c1bd 5c38 c5bc
000003d0: 3d9b 90be 8ab7 4c3d 5d93 d1bc 5eca 7fbc
000003e0: 7e44 fdbc 711c 633d 4f13 ea3c 0b8c f0bc
000003f0: 77dd ce41 b43d 8eba d9fd 1e3d 1e09 6e3c

network.3.bias f4 [2]
-0.2598159 0.3251722
00000000: 9706 85be f87c a63e

exp_avg f4 [512, 8]
5.9286485e-06 1.9491636e-05 -2.8835164e-05 -6.051084e-07 2.254664e-05 -2.8988272e-05 -1.0192895e-06 7.13826e-06
-3.990104e-06 -1.5595737e-05 9.323882e-07 1.2243646e-06 -7.363953e-06 8.722117e-07 3.320744e-07 -3.3469286e-07
8.716697e-09 -5.7623267e-05 -3.715117e-06 -4.347813e-06 -1.7341638e-09 -3.7128866e-06 -9.308914e-06 -0.00012089425
-1.8255378e-07 -2.3541627e-07 3.9145856e-08 -2.7368549e-06 -7.59487e-06 2.1564796e-07 -7.1426625e-06 -4.85801e-07
1.1887902e-06 5.7588775e-05 -2.3820212e-06 8.469689e-06 -3.5156663e-06 -2.2290149e-06 7.89079e-06 0.00021558224
5.3262365e-06 3.047789e-05 -2.6423837e-05 8.4963185e-06 1.8754652e-05 -2.5681371e-05 4.5339966e-06 5.824456e-06
6.104901e-08 2.0212813e-06 -4.3905249e-07 -1.7598544e-06 -4.2582124e-06 -5.1556674e-07 7.032152e-10 1.2091321e-05
8.183579e-06 6.513358e-05 -2.8715624e-05 5.2536954e-05 3.6022793e-05 -3.134617e-05 -9.857647e-06 -0.00015175084
-4.3289006e-07 -1.9528165e-06 8.707161e-07 -5.077676e-06 -1.1610765e-06 8.940407e-07 -2.3578375e-06 7.752753e-06
-7.4148915e-07 1.1985511e-05 -2.7021283e-06 2.8794088e-06 1.1821136e-07 -2.689545e-06 -2.30802e-06 2.4122222e-08
-5.7681495e-07 1.6432376e-06 -1.1400459e-06 -1.4944092e-06 -1.1643781e-05 -1.1773361e-06 -1.3975601e-06 4.7958333e-06
1.5225738e-06 9.652481e-07 -6.983e-06 6.5744075e-07 1.6362252e-05 -7.083517e-06 -5.1897297e-07 1.2863052e-06
-1.0980095e-06 -1.38930645e-05 1.5998063e-06 -5.223008e-06 -1.5437732e-06 1.6685746e-06 3.2966443e-06 -1.246434e-06
2.9690506e-07 4.0877228e-07 5.85387e-07 6.5950294e-06 9.88549e-06 5.388906e-07 -4.8535895e-07 -7.685121e-06
-8.1940937e-07 -1.3604793e-07 1.6396361e-06 -1.708767e-06 -2.475134e-06 1.7500504e-06 -2.6933206e-08 2.2448708e-06
-1.2583169e-07 6.7389806e-07 -2.0233717e-06 5.8810806e-06 -3.4465327e-06 -2.0414154e-06 -3.2571284e-06 -7.7411954e-08
-2.99632e-06 -2.8566208e-05 2.1697897e-05 -2.0788299e-05 -4.803541e-05 2.1938433e-05 2.9591094e-05 -3.8533894e-06
-8.8552895e-07 -2.6050848e-06 -1.6702496e-06 -1.2285631e-05 -9.825657e-06 -1.3553206e-06 3.9332717e-06 1.15641315e-05
4.998075e-07 -7.737212e-06 4.083747e-06 -4.3019963e-06 2.9187674e-06 3.5935386e-06 -7.696189e-06 -8.258302e-06
1.2062939e-06 9.655404e-06 -2.5978045e-06 8.34641e-06 5.723425e-06 -3.0050696e-06 3.6585986e-06 -1.5130365e-05
-4.516234e-06 2.4243395e-06 1.0616529e-05 -1.6531618e-06 -6.3388084e-06 1.0520291e-05 1.3059939e-06 -2.1097592e-06
7.136767e-07 6.050057e-06 1.3364152e-06 7.063674e-06 8.36769e-06 1.2986346e-06 2.2348615e-06 1.8617531e-07
1.212793e-06 2.8717044e-05 -5.345832e-06 -5.754119e-06 -1.7167199e-06 -4.0964314e-06 1.5037078e-06 -6.0279916e-08
4.5315255e-06 1.0905828e-05 -4.2427106e-07 3.5212076e-06 5.985287e-06 -8.3727997e-07 1.6094734e-06 2.78951e-06
-2.8706538e-06 2.754162e-07 1.3252223e-05 -6.0289517e-06 -8.546422e-06 1.3762167e-05 2.3555692e-06 9.422957e-06
6.028521e-07 1.3928872e-06 1.4634625e-06 5.6664267e-06 8.843085e-06 1.2884723e-06 4.4487724e-06 7.486389e-07
-4.2300762e-06 -1.5558953e-06 1.0548653e-05 -2.532154e-06 -1.0182142e-05 1.0724096e-05 -6.940588e-08 -2.1583683e-06
-2.414948e-06 -5.053449e-06 9.808511e-06 -5.6874933e-06 -1.3691393e-05 9.961595e-06 1.7118884e-06 1.7258297e-06
-5.8796445e-07 -3.6711638e-06 1.9407607e-06 -3.0855588e-06 -7.940961e-06 2.0194225e-06 1.250939e-06 2.792044e-06
5.9696356e-07 -1.1627643e-05 8.385685e-06 8.448505e-06 -1.2629231e-05 8.423515e-06 -2.3842663e-06 -2.742604e-06
-5.044642e-07 -2.2232525e-06 3.273068e-07 -2.789401e-06 -1.1285909e-07 5.790302e-07 1.472098e-06 5.9123586e-06
8.938874e-07 1.7340034e-06 -1.1435393e-06 5.4838056e-06 2.2989573e-07 -1.2501416e-06 -2.1692167e-06 -4.4539807e-05
00000000: b4ee c636 f881 a337 0be3 f1b7 bc6e 22b5
00000010: 8a22 bd37 d72b f3b7 85ce 88b5 3085 ef36
00000020: bbe2 85b6 97d3 82b7 3b49 7a35 d954 a435
00000030: e017 f7b6 ee21 6a35 f547 b234 d6af b3b4
00000040: 70c0 1532 83b0 71b8 3951 79b6 6ee3 91b6
00000050: 7757 eeb0 e82a 79b6 7b2d 1cb7 9b88 fdb8
00000060: 0004 44b4 bbc6 7cb4 5321 2833 cfaa 37b6
00000070: 70d7 feb6 dc8c 6734 01ab efb6 fe67 02b5
00000080: 858e 9f35 7a8b 7138 d0da 1fb6 0a19 0e37
00000090: b0ee 6bb6 2f96 15b6 af62 0437 eb0d 6239
000000a0: 06b8 b236 c5aa ff37 c2a8 ddb7 698b 0e37
000000b0: 4f53 9d37 536e d7b7 bc22 9836 b26f c336
000000c0: 0c1a 8333 59a5 0736 eab6 ebb4 2334 ecb5
000000d0: c4e1 8eb6 7a65 0ab5 5f4c 4130 d4db 4a37
000000e0: 344c 0937 5398 8838 55e2 f0b7 205b 5c38
000000f0: 2e17 1738 b279 03b8 4562 25b7 4e1f 1fb9
00000100: f567 e8b4 220d 03b6 28bb 6935 e860 aab6
00000110: 49d6 9bb5 02fe 6f35 573b 1eb6 d211 0237
00000120: bf0a 47b5 6115 4937 3656 35b6 de3b 4136
00000130: 62db fd33 087e 34b6 7be3 1ab6 5435 cf32
00000140: 6cd6 1ab5 378d dc35 ae03 99b5 8293 c8b5
00000150: a959 43b7 f604 9eb5 cd93 bbb5 e5eb a036
00000160: 3d5b cc35 ac8d 8135 834f eab6 fc7a 3035
00000170: ab41 8937 f3ae edb6 8d4f 0bb5 1ca5 ac35
00000180: 525f 93b5 4216 69b7 edb8 d635 4c41 afb6
00000190: a533 cfb5 c9f3 df35 eb3b 5d36 254b a7b5
000001a0: 5266 9f34 3c75 db34 7d23 1d35 df4a dd36
000001b0: dbd9 2537 48a8 1035 9d49 02b5 58ef 00b7
000001c0: 62f5 5bb5 9214 12b4 7811 dc35 c958 e5b5
000001d0: 7a1a 26b6 46e3 ea35 bf5a e7b2 96a6 1636
000001e0: 5a1c 07b4 ece5 3435 43c9 07b6 1956 c536
000001f0: fb4a 67b6 40ff 08b6 0a95 5ab6 ac3d a6b3
00000200: 6314 49b6 77a1 efb7 e103 b637 8862 aeb7
00000210: a179 49b8 6d08 b837 643a f837 5d4c 81b6
00000220: 16b5 6db5 04d3 2eb6 572d e0b5 621e 4eb7
00000230: e0d8 24b7 76e8 b5b5 8cfa 8336 9103 4237
00000240: 832a 0635 13cf 01b7 1f07 8936 de59 90b6
00000250: 0be0 4336 8628 7136 e11e 01b7 238d 0ab7
00000260: f1e7 a135 a5fd 2137 f155 2eb6 8f07 0c37
00000270: d90b c036 b4aa 49b6 3f86 7536 6cd8 7db7
00000280: 288a 97b6 d6b1 2236 a51d 3237 35e2 ddb5
00000290: f3b1 d4b6 4e80 3037 9c49 af35 6395 0db6
000002a0: 7d93 3f35 9801 cb36 e05e b335 7f04 ed36
000002b0: f462 0c37 bf4c ae35 a1fa 1536 7be7 4734
000002c0: 40c7 a235 62e5 f037 5960 b3b6 8113 c1b6
000002d0: 0c6a e6b5 1474 89b6 02d3 c935 3c73 81b3
000002e0: 820d 9836 2df8 3637 5fc7 e3b4 e34d 6c36
000002f0: 39d5 c836 71c1 60b5 1605 d835 6b33 3b36
00000300: 75a5 40b6 eadc 9334 dd55 5e37 4d4c cab6
00000310: 9a62 0fb7 0fe4 6637 5f14 1e36 4b17 1e37
00000320: aed3 2135 3df3 ba35 306c c435 3c22 be36
00000330: c35c 1437 92ef ac35 aa46 9536 13f6 4835
00000340: 14f0 8db6 28d4 d0b5 1ffa 3037 13ee 29b6
00000350: f8d3 2ab7 a4eb 3337 490c 95b3 7cd8 10b6
00000360: 7e10 22b6 cc90 a9b6 3c8f 2437 32d7 beb6
00000370: 16b4 65b7 ba20 2737 0ac4 e535 0fa3 e735
00000380: 9cd4 1db5 1d5e 76b6 043e 0236 7f11 4fb6
00000390: 2b3a 05b7 6a85 0736 f0e5 a735 f35e 3b36
000003a0: 063f 2035 5914 43b7 3eb0 0c37 0dbe 0d37
000003b0: 22e2 53b7 b952 0d37 6201 20b6 940d 38b6
000003c0: 846a 07b5 3033 15b6 b4b8 af34 8b31 3bb6
000003d0: f15c f2b3 a76e 1b35 e794 c535 c662 c636
000003e0: 79f3 6f35 e7bb e835 b67b 99b5 8801 b836
000003f0: 42d9 7634 8aca a7b5 dc92 11b6 41d0 3ab8

exp_avg_sq f4 [512, 8]
1.3317736e-10 8.643138e-09 4.3347743e-09 2.808475e-10 1.317714e-09 4.5158877e-09 1.106474e-09 1.3340312e-10
1.9389384e-08 3.20784e-09 1.7696645e-09 1.5833393e-10 4.3236195e-10 1.8726125e-09 6.157636e-11 4.5665225e-11
4.084603e-10 2.2040716e-08 5.582441e-09 3.142919e-10 1.3808816e-09 5.562695e-09 6.004518e-08 1.5612478e-06
5.890728e-11 6.0080035e-10 1.7440074e-10 1.2210881e-09 5.9892685e-10 2.6772717e-10 2.1185214e-09 1.1719675e-10
1.115979e-09 8.436508e-08 3.9705103e-08 1.3075382e-09 2.1833466e-09 3.837121e-08 1.3277242e-08 1.3472744e-05
2.7080778e-09 1.00172876e-07 9.306882e-08 3.8023472e-08 1.8843027e-08 9.9195894e-08 6.0653687e-09 2.2856332e-09
6.630579e-09 3.0162713e-11 7.872745e-11 4.2598158e-11 6.0756183e-10 8.393005e-11 6.105449e-11 1.5961085e-08
1.4613661e-09 9.2406516e-08 2.0536612e-08 5.45055e-08 1.4319694e-07 1.9599e-08 1.7135871e-08 1.5325753e-06
5.5759733e-12 1.08730004e-10 1.5781873e-10 2.2442927e-10 3.751913e-10 1.6552218e-10 5.113871e-10 5.305554e-09
3.021296e-08 4.981041e-09 3.3905778e-09 1.0375797e-10 1.1473067e-09 3.6451466e-09 9.16222e-09 1.0993172e-07
4.819522e-09 1.2395607e-10 6.439517e-11 5.5046925e-11 6.2846245e-10 6.8265296e-11 2.7510638e-10 1.2840419e-08
4.920696e-09 1.6916593e-10 4.747703e-10 1.7613916e-10 1.1194481e-09 4.975151e-10 6.233321e-11 5.5788835e-11
8.041072e-12 2.7386706e-09 1.5750476e-10 4.4158352e-10 1.0738072e-09 1.5491168e-10 2.9564595e-09 5.1933627e-12
3.0505245e-09 5.066989e-10 8.616851e-11 2.1388434e-10 6.564597e-10 8.90847e-11 6.5865396e-10 7.732791e-09
4.584755e-12 4.177091e-11 3.604939e-11 4.4780058e-11 9.069998e-11 3.7211824e-11 6.3532374e-12 7.8824225e-10
2.4305565e-11 5.3474003e-10 1.06938985e-10 1.5743725e-09 3.2626128e-09 1.03385765e-10 8.797434e-11 9.149929e-10
2.4882205e-10 5.019379e-08 9.405885e-09 1.3438041e-07 4.8413852e-08 9.34145e-09 6.8888557e-09 2.5163377e-10
1.2638573e-11 1.1106308e-09 1.5079762e-10 7.513587e-10 1.5124084e-09 1.473697e-10 2.904713e-10 1.4314532e-08
4.1134297e-11 1.7352726e-09 8.102699e-10 6.9430506e-09 7.356818e-09 8.0878754e-10 1.1323734e-09 3.9811376e-09
1.4778064e-08 1.7831149e-09 3.2659084e-10 1.2777808e-09 2.5007394e-09 4.174086e-10 1.3156416e-09 3.4627135e-08
6.0582734e-09 5.236101e-10 7.48533e-10 6.4155556e-11 7.448096e-10 7.7769424e-10 1.3961322e-10 2.1618731e-11
3.7068906e-09 3.592216e-10 6.0330914e-11 3.9619336e-10 6.648168e-10 8.330315e-11 3.9370407e-10 1.227237e-11
5.1965376e-10 1.3688665e-08 1.7403671e-08 5.5175535e-09 2.4912084e-09 2.0248343e-08 2.1457369e-10 1.3056998e-09
1.859455e-08 3.1473375e-09 2.7368213e-10 1.0609554e-09 7.4193973e-10 2.254531e-10 3.173758e-09 6.0026296e-11
7.8661175e-11 1.1704013e-09 8.226515e-10 8.2095847e-10 1.2500134e-09 8.777516e-10 8.95283e-11 1.9874888e-08
5.1339355e-09 7.03996e-10 1.0285181e-10 2.8414293e-10 9.81157e-10 1.1995795e-10 9.919728e-10 1.6853838e-11
3.084029e-09 3.2878114e-10 1.1777386e-09 2.4147345e-10 5.658219e-10 1.2236824e-09 7.484747e-11 4.8228084e-09
5.4602167e-09 8.7624114e-10 4.90241e-10 6.0176475e-10 1.0299162e-09 5.2117366e-10 7.3713716e-11 1.4510037e-08
3.9236067e-12 3.6998504e-10 4.917737e-11 1.3980324e-10 4.755738e-10 5.410982e-11 3.2074335e-10 5.28345e-09
1.5483767e-11 5.695094e-10 2.8032643e-10 5.2766955e-09 1.5325239e-09 5.006651e-10 6.627872e-10 3.7112863e-10
4.051742e-12 2.7345368e-10 3.8382388e-11 2.056633e-10 1.11925066e-10 3.794418e-11 3.3388572e-10 4.5840634e-09
1.635138e-10 8.7359286e-10 2.3447257e-09 4.369465e-09 1.3629069e-09 2.3712852e-09 3.987488e-10 1.8627364e-07
00000000: 186e 122f ec7c 1432 14f1 9431 c665 9a2f
00000010: f11a b530 2b2a 9b31 9812 9830 a4ad 122f
00000020: b58d a632 eb70 5c31 8938 f330 0a17 2e2f
00000030: 89b1 ed2f 59af 0031 6968 872e 79d6 482e
00000040: ad8d e02f 0c54 bd32 accf bf31 a7c8 ac2f
00000050: 74c9 bd30 fc21 bf31 30f2 8033 118c d135
00000060: da89 812e 9125 2530 72c1 3f2f 38d3 a730
00000070: bba1 2430 402f 932f 6c95 1131 f4db 002f
00000080: 0561 9930 312c b533 3988 2a33 e9b4 b330
00000090: d709 1631 97cd 2433 ee19 6432 ff08 6237
000000a0: 0219 3a31 9f1e d733 20dd c733 404f 2333
000000b0: 41dc a132 8505 d533 8c67 d031 4911 1d31
000000c0: 31d3 e331 32a8 042e 9d1f ad2e 4359 3b2e
000000d0: 5d01 2730 6b90 b82e 9f42 862e cc1a 8932
000000e0: 40d9 c830 0571 c633 7d68 b032 6e19 6a33
000000f0: adc1 1934 a85a a832 2e32 9332 e3b2 cd35
00000100: e72f c42c 8d19 ef2e 0686 2d2f 39c3 762f
00000110: 7b43 ce2f 5afe 352f ab91 0c30 264c b631
00000120: 80c3 0133 b325 ab31 adff 6831 8b2a e42e
00000130: 44af 9d30 197e 7a31 df67 1d32 9a13 ec33
00000140: f798 a531 884a 082f 429b 8d2e 5419 722e
00000150: 1dc0 2c30 f21d 962e c83d 972f c398 5c32
00000160: e612 a931 faff 392f fd80 0230 c4aa 412f
00000170: 14db 9930 83c1 0830 7a12 892e a55c 752e
00000180: c575 0d2d 3433 3c31 a62d 2d2f 5bc3 f22f
00000190: 3b95 9330 c353 2a2f 962a 4b31 a7b9 b62c
000001a0: 65a1 5131 c447 0b30 8f7c bd2e 172b 6b2f
000001b0: 3f72 3430 3ae6 c32e a70c 3530 2dd9 0432
000001c0: cd4f a12c ddb5 372e 018c 1e2e ddf1 442e
000001d0: 8d73 c72e caa8 232e e088 df2c 9eab 5830
000001e0: 44cb d52d fcfc 1230 4c29 eb2e 4f61 d830
000001f0: 7e34 6031 0359 e32e 2775 c12e e782 7b30
00000200: 97ca 882f a894 5733 8597 2132 354a 1034
00000210: 98ef 4f33 227c 2032 04b3 ec31 4e56 8a2f
00000220: 1357 5e2d d9a4 9830 c2cd 252f 2b88 4e30
00000230: 24dd cf30 e208 222f 34b0 9f2f faeb 7532
00000240: 1ae9 342e 7a7e ee30 adb9 5e30 b88f ee31
00000250: 41c7 fc31 5d51 5e30 d9a1 9b30 75ca 8831
00000260: 9de2 7d32 c711 f530 938b b32f ea9d af30
00000270: 79d9 2b31 0a79 e52f 06d2 b430 f0b8 1433
00000280: 2329 d031 c9ed 0f30 54c1 4d30 5e14 8d2e
00000290: 51bb 4c30 5ec5 5530 a181 192f 0e29 be2d
000002a0: 4fbc 7e31 f27b c52f 49ab 842e 42cf d92f
000002b0: 53be 3630 812f b72e ec70 d82f d7e5 572d
000002c0: 62d7 0e30 632b 6b32 147f 9532 ea94 bd31
000002d0: cd31 2b31 94ee ad32 20ed 6b2f 3a74 b330
000002e0: d9b9 9f32 8c48 5831 5675 962f 0dd1 9130
000002f0: 5ef1 4b30 68e3 772f 5719 5a31 cdff 832e
00000300: 4efa ac2e d6db a030 f420 6230 d1a9 6130
00000310: f0cc ab30 4746 7130 f4df c42e 57b9 aa32
00000320: 9366 b031 5083 4130 6c2c e22e 9035 9c2f
00000330: 65d9 8630 29e5 032f f155 8830 783f 942d
00000340: d0ee 5331 d5bf b42f fedd a130 5ec0 842f
00000350: 2d88 1b30 7f2e a830 6197 a42e dfb5 a531
00000360: 939c bb31 fddb 7030 a5c1 0630 6e69 2530
00000370: f48c 8d30 5642 0f30 2219 a22e d147 7932
00000380: b50c 8a2c c466 cb2f cc48 582e 1db7 192f
00000390: 88b9 0230 3efa 6d2e 9d54 b02f b889 b531
000003a0: 5832 882d a98b 1c30 701c 9a2f 4e4e b531
000003b0: e4a0 d230 2d9f 0930 812f 3630 b607 cc2f
000003c0: d98e 8e2c 2f55 962f bace 282e 1321 622f
000003d0: 3620 f62e 59e1 262e 3d8e b72f d981 9d31
000003e0: 0bc9 332f a221 7030 da20 2131 3822 9631
000003f0: 0651 bb30 17f4 2231 e836 db2f 8202 4834

exp_avg f4 [512]
-1.7270344e-05 5.9334775e-06 8.818051e-06 -6.43224e-06 -6.5227646e-06 -2.1750791e-05 3.6254344e-06 1.7358954e-05
-9.806498e-07 -4.5083934e-06 5.1010707e-06 -6.8239905e-07 9.312299e-06 -6.59132e-06 1.8622638e-06 1.1519189e-05
-6.394367e-05 3.3241906e-06 -1.6870992e-05 -4.5992306e-06 4.3518344e-06 -3.6264469e-06 -5.8187165e-06 -9.618806e-07
-2.1605794e-07 -4.9075466e-06 -1.3573772e-06 -1.156923e-07 -7.1361086e-07 -2.3434259e-05 1.9443673e-06 2.9666676e-06
1.3776345e-06 1.3664237e-07 -2.139221e-06 -4.973907e-07 2.5386066e-06 4.818515e-06 7.092412e-07 -1.1611203e-06
-3.245514e-06 0.00010461973 2.9608445e-06 1.8013435e-06 -1.0640916e-06 -0.0005480758 6.431094e-06 -1.1590886e-05
5.480681e-06 8.199359e-06 1.2982535e-08 -1.1002185e-06 -1.2296402e-05 -9.0443604e-07 -7.375796e-06 5.465679e-07
2.3864686e-06 2.114698e-06 1.2323396e-06 -4.4668263e-06 -4.518802e-06 3.004094e-06 6.080459e-06 1.7116342e-06
-1.9889626e-07 -4.1997777e-05 -1.3776387e-06 5.8571545e-06 2.0893085e-06 7.741452e-06 -6.510167e-06 5.941198e-06
2.5486145e-06 1.8942887e-05 -1.6243566e-06 8.868266e-07 -4.901054e-06 1.6908575e-07 -4.320076e-06 -3.4554735e-06
-2.613756e-07 -5.263077e-06 6.1216674e-06 -4.45848e-06 -1.3318357e-06 4.39385e-06 -0.0006452789 -1.1012618e-12
-2.0992738e-06 4.283992e-06 -3.8415124e-06 -2.2715587e-06 -1.420665e-05 -1.9111958e-06 6.268125e-06 -3.4111067e-06
2.1344063e-06 1.8088964e-06 -1.2462015e-06 -1.652588e-07 -4.192639e-06 -6.606801e-05 1.390377e-06 1.8293642e-05
-1.2541372e-07 7.337634e-07 3.4884495e-06 -3.1893848e-08 1.1063351e-05 2.2179022e-06 -3.1413995e-06 -7.6974775e-06
4.6819773e-06 -4.5781955e-05 9.324086e-05 -1.03549555e-05 -7.1376166e-06 3.2142364e-06 0.00045368203 2.283523e-06
2.8035563e-06 1.4092477e-06 -9.38965e-06 -8.335155e-06 2.8791683e-06 3.177367e-06 -9.332687e-06 4.8202355e-06
4.1000687e-05 -3.0130777e-05 -2.0134087e-06 4.0060722e-06 8.599018e-06 2.8493125e-06 -6.133587e-06 -1.7404574e-06
3.5634818e-07 1.5202444e-07 1.5962188e-06 -4.903147e-06 6.437162e-06 -0.00015941668 3.1496193e-06 -3.1118984e-06
-1.1703939e-05 -2.9019408e-05 4.820684e-06 -6.585951e-05 0.00024618453 2.6096811e-06 4.0639475e-06 -0.0011852669
-1.7459026e-07 -1.8725079e-05 -2.8408756e-06 2.5934814e-06 -1.7894648e-06 -7.324675e-05 3.8838825e-06 3.0142448e-06
-5.354357e-06 -3.1395634e-06 9.38385e-06 5.023922e-06 -3.5932777e-07 -4.8353348e-05 -4.1830904e-06 -2.9465336e-06
-0.001440753 -1.7172641e-06 -4.1430297e-07 -3.7218233e-06 -1.45888525e-05 -2.692409e-06 3.5508276e-06 -5.1020806e-06
3.3507133e-06 1.8833867e-06 -2.87218e-06 -1.1426459e-08 1.8818338e-07 -0.00038000688 2.7805336e-06 -4.678973e-06
3.1039872e-06 -2.2889747e-06 -5.2444952e-06 3.7635525e-06 -4.7299604e-06 1.777779e-06 -2.8765944e-06 3.0361363e-05
-8.410316e-06 -7.65872e-07 9.13962e-07 -5.6063845e-07 3.806363e-06 -7.956295e-06 -3.5048506e-05 1.4441048e-07
-2.760051e-07 8.659125e-07 -2.0581543e-07 -3.295451e-06 9.1548947e-07 5.209823e-07 2.2855426e-07 -3.5906817e-06
5.108869e-06 3.0151969e-06 4.6325553e-07 2.215453e-06 -2.9438545e-06 -1.0189545e-06 1.0997481e-06 4.324164e-06
7.2408893e-06 1.0918854e-05 -4.2353028e-07 -3.4320558e-07 -4.5234037e-06 2.6427952e-06 1.8963058e-07 -1.5150474e-06
3.4322763e-06 -9.419613e-07 -5.266108e-06 4.733503e-06 -1.1163749e-05 -2.4195551e-06 1.0066573e-05 -1.278429e-06
-1.9942613e-06 1.8351064e-05 1.587675e-06 1.2206102e-05 -1.2741407e-06 -7.5221385e-07 9.312509e-06 -2.1968356e-06
4.1961084e-06 2.4597736e-07 8.675498e-06 -2.2814189e-07 -6.4875564e-07 -2.1385983e-06 -3.6733052e-06 9.983961e-07
2.5591505e-06 -3.1868578e-06 1.983588e-06 1.4291277e-07 -0.00057616836 1.1854852e-05 4.87161e-06 -2.5588031e-05
00000000: c8df 90b7 2f18 c736 3ef1 1337 85d4 d7b6
00000010: 1fde dab6 7875 b6b7 7d4c 7336 129e 9137
00000020: df9e 83b5 ce46 97b6 dd29 ab36 1b2e 37b5
00000030: 053c 1c37 022b ddb6 e6f2 f935 8a42 4137
00000040: 7f19 86b8 2915 5f36 2e86 8db7 1753 9ab6
00000050: f905 9236 e25d 73b6 653e c3b6 f719 81b5
00000060: 8efd 67b4 81ab a4b6 202f b6b5 8472 f8b3
00000070: f78e 3fb5 b094 c4b7 fa7b 0236 f616 4736
00000080: 29e7 b835 f8b7 1234 898f 0fb6 6e84 05b5
00000090: ee5c 2a36 bbae a136 af62 3e35 cad7 9bb5
000000a0: 82cd 59b6 4a67 db38 ecb2 4636 b1c5 f135
000000b0: e9d1 8eb5 bfac 0fba adca d736 7a76 42b7
000000c0: b1e6 b736 fb8f 0937 cb09 5f32 38ab 93b5
000000d0: a54c 4eb7 5fc8 72b5 9b7d f7b6 dcb7 1235
000000e0: 3827 2036 3cea 0d36 de66 a535 bfe1 95b6
000000f0: 37a0 97b6 f199 4936 bf06 cc36 4ebb e535
00000100: 3090 55b4 c526 30b8 4ee7 b8b5 9388 c436
00000110: 0c36 0c36 48e1 0137 e971 dab6 815a c736
00000120: dd08 2b36 8ae7 9e37 7804 dab5 430e 6e35
00000130: bc73 a4b6 f08d 3534 2cf5 90b6 95e4 67b6
00000140: 3053 8cb4 7d99 b0b6 b968 cd36 0d9a 95b6
00000150: 87c1 b2b5 e26e 9336 ef27 29ba 23fd 9aab
00000160: 40e1 0cb6 36bf 8f36 57e6 80b6 1571 18b6
00000170: 1959 6eb7 1842 00b6 c952 d236 5eea 64b6
00000180: d23c 0f36 35c9 f235 2843 a7b5 fe71 31b4
00000190: 7fae 8cb6 fe8d 8ab8 fd9c ba35 4c75 9937
000001a0: 76a9 06b4 d6f7 4435 1b1b 6a36 a8fb 08b3
000001b0: bb9c 3937 45d7 1436 d5d0 52b6 6a24 01b7
000001c0: e119 9d36 0006 40b8 4e8a c338 32ba 2db7
000001d0: a97f efb6 29b4 5736 2cdc ed39 a03e 1936
000001e0: bb24 3c36 6225 bd35 3d88 1db7 38d7 0bb7
000001f0: bc37 4136 c03a 5536 9693 1cb7 82bd a136
00000200: 27f8 2b38 5ac1 fcb7 191e 07b6 e66b 8636
00000210: 8044 1037 d136 3f36 1ccf cdb6 a999 e9b5
00000220: 1f50 bf34 293c 2334 a93d d635 b685 a4b6
00000230: cdfe d736 1729 27b9 0c5e 5336 02d6 50b6
00000240: 095c 44b7 b46e f3b7 5cc1 a136 0e1e 8ab8
00000250: 5412 8139 fb21 2f36 0b5d 8836 f55a 9bba
00000260: 0177 3bb4 cd13 9db7 dfa5 3eb6 ac0b 2e36
00000270: 8b2d f0b5 0d9c 99b8 4c52 8236 5548 4a36
00000280: 94a9 b3b6 4ab1 52b6 546f 1d37 2993 a836
00000290: a2e9 c0b4 03cf 4ab8 795c 8cb6 10bd 45b6
000002a0: a6d7 bcba bf7c e6b5 5e6d deb4 70c4 79b6
000002b0: a5c2 74b7 3caf 34b6 c14a 6e36 8a32 abb6
000002c0: d1dc 6036 adc8 fc35 adbf 40b6 194e 44b2
000002d0: 740f 4a34 a93b c7b9 3499 3a36 1200 9db6
000002e0: 184e 5036 499c 19b6 dff9 afb6 5791 7c36
000002f0: 0db6 9eb6 059c ee35 840b 41b6 88b0 fe37
00000300: 081a 0db7 5396 4db5 fe56 7535 c87e 16b5
00000310: d270 7f36 077c 05b7 0c01 13b8 400f 1b34
00000320: da2d 94b4 0e71 6835 1dfe 5cb4 6b27 5db6
00000330: f5bf 7535 a2d9 0b35 8468 7534 71f7 70b6
00000340: da6c ab36 b058 4a36 5bb5 f834 31ad 1436
00000350: 098f 45b6 03c3 88b5 0f9b 9335 4918 9136
00000360: c4f6 f236 1f30 3737 8f61 e3b4 d141 b8b4
00000370: bec7 97b6 e05a 3136 429d 4b34 a258 cbb5
00000380: 0f56 6636 16db 7cb5 86b3 b0b6 7bd4 9e36
00000390: f04b 3bb7 a45f 22b6 9ae3 2837 7c96 abb5
000003a0: 26d5 05b6 9cf0 9937 1918 d535 cfc8 4c37
000003b0: 2403 abb5 beeb 49b5 ec3c 1c37 596d 13b6
000003c0: 4ccc 8c36 df0e 8434 fb8c 1137 2af7 74b4
000003d0: 2626 2eb5 d784 0fb6 e782 76b6 a100 8635
000003e0: dfbd 2b36 cddd 55b6 c81d 0536 9073 1934
000003f0: 010a 17ba 34e4 4637 d076 a336 e1a5 d6b7

exp_avg_sq f4 [512]
1.0226161e-09 6.086476e-10 1.1826458e-09 7.358108e-10 4.477366e-09 5.7768975e-08 8.874084e-11 1.4664612e-07
1.01489546e-10 4.7177373e-10 2.120446e-10 8.339564e-10 1.6547298e-09 5.3092947e-10 6.966711e-11 1.0250099e-09
7.8156134e-08 1.2775332e-09 7.866994e-09 2.083177e-09 2.126325e-10 4.361641e-10 2.004689e-09 7.5031026e-10
8.18263e-10 8.3963625e-10 8.995423e-10 6.7978284e-10 4.059665e-10 2.505385e-09 3.0084543e-10 2.2949884e-09
1.1049656e-09 7.4680084e-10 2.1885856e-10 7.195884e-11 1.5842237e-10 2.8360274e-09 8.7096975e-11 2.4503533e-09
8.1396734e-10 2.8033455e-07 2.1491672e-10 7.550682e-11 4.333535e-10 4.8193306e-05 1.2042571e-09 1.4064192e-09
7.2876255e-10 7.623418e-10 7.0287726e-10 5.982234e-10 1.4535161e-09 1.0215455e-10 9.082388e-10 1.0774096e-09
3.2796985e-10 5.6788605e-11 4.0009954e-10 8.615085e-11 1.4163772e-10 6.8928885e-10 1.5499457e-10 6.5408436e-11
1.7537972e-10 4.9314185e-08 2.3144422e-09 3.4739132e-09 4.7419585e-10 9.0875685e-10 1.3131999e-09 1.2502642e-09
7.376223e-10 9.445109e-09 5.3639404e-10 3.0673677e-10 1.1685176e-09 5.065924e-10 1.4564487e-09 1.3690784e-08
1.0635372e-10 3.0316052e-09 5.138821e-10 4.5269252e-10 4.227421e-10 6.3159133e-10 5.6377496e-05 1.2150292e-24
1.532134e-10 2.4244637e-09 7.2018336e-10 1.1826867e-10 5.027663e-10 4.5912077e-10 3.9372886e-10 7.318323e-10
1.0667004e-10 3.8629225e-10 1.955605e-10 1.520497e-10 4.3481965e-10 3.5679173e-07 4.7874127e-10 7.1310637e-09
2.0113726e-10 6.6835704e-10 4.761878e-10 1.2888353e-10 3.3327535e-08 4.6231785e-10 2.096603e-09 3.3398986e-09
7.93912e-10 7.818808e-08 5.7932933e-08 1.9272852e-09 5.64079e-09 6.7215744e-10 3.7531747e-06 6.7314243e-10
2.6660826e-10 6.124986e-10 1.4937029e-09 1.5121373e-08 1.417015e-10 2.8429663e-09 9.593102e-10 1.4817098e-09
1.16720615e-08 4.618906e-08 5.1814462e-11 1.2541622e-10 4.8552953e-09 8.1325495e-11 3.0458465e-09 3.0080485e-10
3.4104233e-10 1.8967403e-09 4.6278176e-11 1.0457749e-09 1.1890318e-09 2.4593845e-05 2.5121277e-10 4.2468298e-10
8.8611807e-10 3.1877967e-08 6.5484745e-10 4.2740258e-08 5.4061955e-05 1.0144207e-09 6.3002115e-10 3.7590882e-05
1.7099602e-10 1.4706267e-08 8.7525936e-10 2.545444e-09 4.9191307e-10 3.35083e-07 1.2742171e-10 9.450845e-10
1.483177e-09 2.088675e-10 1.3236531e-09 5.518479e-10 9.168299e-10 1.1204856e-07 1.0794562e-09 9.1783775e-10
9.1477326e-05 5.73071e-10 5.1445187e-10 9.363254e-10 7.308956e-10 2.8972852e-10 1.0104357e-09 1.0416493e-09
6.47465e-10 1.7698462e-10 2.2728022e-09 9.614638e-10 1.81458e-10 6.917223e-05 2.2017688e-09 2.466567e-10
1.1545105e-09 8.955221e-10 8.278378e-10 1.1314952e-10 5.0028043e-10 1.6609664e-10 1.261892e-09 2.2528102e-08
3.0475994e-10 2.6993743e-10 1.3639602e-10 3.3803466e-10 5.461642e-10 3.213342e-10 1.4476927e-07 6.554851e-10
5.048099e-10 3.7152437e-10 1.18522e-10 1.6943668e-09 4.154167e-10 2.9411376e-10 1.1393944e-10 2.9367852e-11
8.6043256e-10 3.58336e-10 6.439516e-10 4.7247184e-10 1.0015526e-09 4.123374e-10 5.035993e-10 1.584982e-09
3.9115944e-10 4.859005e-08 8.1363655e-10 1.3623894e-10 8.284584e-10 3.1724603e-10 6.8038505e-11 1.3890614e-10
1.6378021e-10 2.5914342e-09 2.296043e-10 4.4432277e-10 2.7120193e-09 3.8235604e-10 5.316066e-10 4.6799054e-11
1.2194491e-10 1.2073978e-08 7.746278e-10 4.13384e-09 1.4282729e-09 6.819706e-11 1.14155405e-07 1.2267125e-09
2.1961843e-09 4.8700455e-10 2.8791214e-10 5.5149003e-11 2.948653e-09 9.305935e-11 1.0985172e-09 1.2954339e-09
5.0489127e-11 9.5282636e-11 1.7221805e-09 7.423099e-10 5.5664943e-05 3.3895917e-10 1.7800696e-09 3.016624e-09
00000000: 1b8c 8c30 c44d 2730 a68a a230 1542 4a30
00000010: 54d7 9931 a91d 7833 a724 c32e c775 1d34
00000020: 892d df2e 20ae 0130 4025 692f 773c 6530
00000030: a16c e330 d7f0 1130 1933 992e 54e0 8c30
00000040: cad6 a733 3495 af30 6827 0732 a327 0f31
00000050: baca 692f a4c8 ef2f ddc2 0931 643e 4e30
00000060: 24ec 6030 26cc 6630 a943 7730 77db 3a30
00000070: b52e df2f 332b 2c31 3b64 a52f ddb5 1d31
00000080: 85dd 9730 7047 4d30 35a3 702f 3a3d 9e2e
00000090: ef2f 2e2f ece3 4231 3d87 bf2e 1263 2831
000000a0: dcbd 5f30 e380 9634 ae4d 6c2f 900a a62e
000000b0: 153d ee2f 2b23 4a38 0883 a530 fa4b c130
000000c0: 1b52 4830 098d 5130 9734 4130 3b70 2430
000000d0: 0dc5 c730 e6a3 e02e a0a7 7930 fb13 9430
000000e0: a74d b42f 49c2 792e 01f5 db2f 9e72 bd2e
000000f0: 79bb 1b2f 6478 3d30 186b 2a2f add5 8f2e
00000100: 01d5 402f 85cd 5333 190c 1f31 bab9 6e31
00000110: 9158 0230 14cc 7930 1d7c b430 c3d5 ab30
00000120: 8ec1 4a30 0744 2232 6071 1330 5da1 a82f
00000130: 8f99 a030 4540 0b30 3c2c c830 b434 6b32
00000140: d2df e92e 9054 5031 3d41 0d30 cfde f82f
00000150: a967 e82f 4a9c 2d30 e076 6c38 4404 bc17
00000160: bd75 282f 9e9b 2631 66f6 4530 ac09 022f
00000170: 0833 0a30 8167 fc2f 6974 d82f 1f2a 4930
00000180: e591 ea2e cd5d d42f 6305 572f 302e 272f
00000190: 6d0b ef2f 158d bf34 6c98 0330 8005 f531
000001a0: 1b27 5d2f 72b7 3730 bde4 0230 7db5 0d2f
000001b0: 0324 0f33 7429 fe2f d413 1031 1e84 6531
000001c0: 973a 5a30 5ae8 a733 efd1 7833 2971 0431
000001d0: ead0 c131 e0c2 3830 0ddf 7b36 3008 3930
000001e0: c791 922f c25c 2830 004b cd30 40e4 8132
000001f0: 6dcd 1b2f fe5d 4331 bad8 8330 07a5 cb30
00000200: 4586 4832 6961 4633 e6e1 632e 87e5 092f
00000210: a1d3 a631 2fd6 b22e 194f 5131 855e a52f
00000220: 717d bb2f cf57 0231 9888 4b2e efba 8f30
00000230: 566b a330 e14e ce37 0e1b 8a2f d178 e92f
00000240: 0493 7330 32ea 0833 cb00 3430 6991 3733
00000250: 95c0 6238 c16b 8b30 cc2d 2d30 e7aa 1d38
00000260: 1a03 3c2f d9a6 7c32 e796 7030 edeb 2e31
00000270: 4e37 0730 75e5 b334 061a 0c2f 34e4 8130
00000280: a7d8 cb30 faa6 652f e7eb b530 d8b0 1730
00000290: 2b04 7c30 599f f033 fd5b 9430 174b 7c30
000002a0: 84d7 bf38 4986 1d30 5569 0d30 05b0 8030
000002b0: 35e8 4830 aa47 9f2f 8cdf 8a30 c729 8f30
000002c0: 4df9 3130 be98 422f 8f2f 1c31 8024 8430
000002d0: e383 472f 8f10 9138 ed4d 1731 d899 872f
000002e0: baac 9e30 c428 7630 e88d 6330 84d1 f82e
000002f0: 1b84 0930 0ca0 362f e16e ad30 d283 c132
00000300: 268b a72f 5166 942f 11f8 152f 26d6 b92f
00000310: e420 1630 c5a7 b02f e071 1b34 aa2d 3430
00000320: d7c2 0a30 683f cc2f fa50 022f 3bdf e830
00000330: b460 e42f d5b0 a12f 348e fa2e 4329 012e
00000340: 8f83 6c30 4fff c42f 1102 3130 40df 0130
00000350: 00a7 8930 54af e22f a66d 0a30 99d6 d930
00000360: cc0a d72f 53b1 5033 95a6 5f30 dacb 152f
00000370: 94b9 6330 6968 ae2f 469e 952e 9aba 182f
00000380: 0814 342f fe14 3231 dd73 7c2f df44 f42f
00000390: 595e 3a31 d433 d22f 7d20 1230 0dd3 4d2e
000003a0: 7114 062f eb6d 4f32 96ed 5430 a409 8e31
000003b0: e34c c430 88f7 952e 9925 f533 1c99 a830
000003c0: afeb 1631 e6dd 0530 0848 9e2f 428c 722e
000003d0: 41a1 4a31 c2a3 cc2e a3fa 9630 070b b230
000003e0: b40d 5e2e 5b87 d12e d7b1 ec30 6a0b 4c30
000003f0: c779 6938 4358 ba2f a2a6 f430 034d 4f31
